{"class_name": "Model", "config": {"name": "model_7", "layers": [{"name": "input_9", "class_name": "InputLayer", "config": {"batch_input_shape": [null, 166, 166, 3], "dtype": "float32", "sparse": false, "name": "input_9"}, "inbound_nodes": []}, {"name": "conv2d_407", "class_name": "Conv2D", "config": {"name": "conv2d_407", "trainable": true, "dtype": "float32", "filters": 32, "kernel_size": [3, 3], "strides": [2, 2], "padding": "valid", "data_format": "channels_last", "dilation_rate": [1, 1], "activation": "linear", "use_bias": false, "kernel_initializer": {"class_name": "VarianceScaling", "config": {"scale": 1.0, "mode": "fan_avg", "distribution": "uniform", "seed": null}}, "bias_initializer": {"class_name": "Zeros", "config": {}}, "kernel_regularizer": null, "bias_regularizer": null, "activity_regularizer": null, "kernel_constraint": null, "bias_constraint": null}, "inbound_nodes": [[["input_9", 0, 0, {}]]]}, {"name": "batch_normalization_407", "class_name": "BatchNormalization", "config": {"name": "batch_normalization_407", "trainable": true, "dtype": "float32", "axis": 3, "momentum": 0.99, "epsilon": 0.001, "center": true, "scale": false, "beta_initializer": {"class_name": "Zeros", "config": {}}, "gamma_initializer": {"class_name": "Ones", "config": {}}, "moving_mean_initializer": {"class_name": "Zeros", "config": {}}, "moving_variance_initializer": {"class_name": "Ones", "config": {}}, "beta_regularizer": null, "gamma_regularizer": null, "beta_constraint": null, "gamma_constraint": null}, "inbound_nodes": [[["conv2d_407", 0, 0, {}]]]}, {"name": "activation_683", "class_name": "Activation", "config": {"name": "activation_683", "trainable": true, "dtype": "float32", "activation": "relu"}, "inbound_nodes": [[["batch_normalization_407", 0, 0, {}]]]}, {"name": "conv2d_408", "class_name": "Conv2D", "config": {"name": "conv2d_408", "trainable": true, "dtype": "float32", "filters": 32, "kernel_size": [3, 3], "strides": [1, 1], "padding": "valid", "data_format": "channels_last", "dilation_rate": [1, 1], "activation": "linear", "use_bias": false, "kernel_initializer": {"class_name": "VarianceScaling", "config": {"scale": 1.0, "mode": "fan_avg", "distribution": "uniform", "seed": null}}, "bias_initializer": {"class_name": "Zeros", "config": {}}, "kernel_regularizer": null, "bias_regularizer": null, "activity_regularizer": null, "kernel_constraint": null, "bias_constraint": null}, "inbound_nodes": [[["activation_683", 0, 0, {}]]]}, {"name": "batch_normalization_408", "class_name": "BatchNormalization", "config": {"name": "batch_normalization_408", "trainable": true, "dtype": "float32", "axis": 3, "momentum": 0.99, "epsilon": 0.001, "center": true, "scale": false, "beta_initializer": {"class_name": "Zeros", "config": {}}, "gamma_initializer": {"class_name": "Ones", "config": {}}, "moving_mean_initializer": {"class_name": "Zeros", "config": {}}, "moving_variance_initializer": {"class_name": "Ones", "config": {}}, "beta_regularizer": null, "gamma_regularizer": null, "beta_constraint": null, "gamma_constraint": null}, "inbound_nodes": [[["conv2d_408", 0, 0, {}]]]}, {"name": "activation_684", "class_name": "Activation", "config": {"name": "activation_684", "trainable": true, "dtype": "float32", "activation": "relu"}, "inbound_nodes": [[["batch_normalization_408", 0, 0, {}]]]}, {"name": "conv2d_409", "class_name": "Conv2D", "config": {"name": "conv2d_409", "trainable": true, "dtype": "float32", "filters": 64, "kernel_size": [3, 3], "strides": [1, 1], "padding": "same", "data_format": "channels_last", "dilation_rate": [1, 1], "activation": "linear", "use_bias": false, "kernel_initializer": {"class_name": "VarianceScaling", "config": {"scale": 1.0, "mode": "fan_avg", "distribution": "uniform", "seed": null}}, "bias_initializer": {"class_name": "Zeros", "config": {}}, "kernel_regularizer": null, "bias_regularizer": null, "activity_regularizer": null, "kernel_constraint": null, "bias_constraint": null}, "inbound_nodes": [[["activation_684", 0, 0, {}]]]}, {"name": "batch_normalization_409", "class_name": "BatchNormalization", "config": {"name": "batch_normalization_409", "trainable": true, "dtype": "float32", "axis": 3, "momentum": 0.99, "epsilon": 0.001, "center": true, "scale": false, "beta_initializer": {"class_name": "Zeros", "config": {}}, "gamma_initializer": {"class_name": "Ones", "config": {}}, "moving_mean_initializer": {"class_name": "Zeros", "config": {}}, "moving_variance_initializer": {"class_name": "Ones", "config": {}}, "beta_regularizer": null, "gamma_regularizer": null, "beta_constraint": null, "gamma_constraint": null}, "inbound_nodes": [[["conv2d_409", 0, 0, {}]]]}, {"name": "activation_685", "class_name": "Activation", "config": {"name": "activation_685", "trainable": true, "dtype": "float32", "activation": "relu"}, "inbound_nodes": [[["batch_normalization_409", 0, 0, {}]]]}, {"name": "max_pooling2d_15", "class_name": "MaxPooling2D", "config": {"name": "max_pooling2d_15", "trainable": true, "dtype": "float32", "pool_size": [3, 3], "padding": "valid", "strides": [2, 2], "data_format": "channels_last"}, "inbound_nodes": [[["activation_685", 0, 0, {}]]]}, {"name": "conv2d_410", "class_name": "Conv2D", "config": {"name": "conv2d_410", "trainable": true, "dtype": "float32", "filters": 80, "kernel_size": [1, 1], "strides": [1, 1], "padding": "valid", "data_format": "channels_last", "dilation_rate": [1, 1], "activation": "linear", "use_bias": false, "kernel_initializer": {"class_name": "VarianceScaling", "config": {"scale": 1.0, "mode": "fan_avg", "distribution": "uniform", "seed": null}}, "bias_initializer": {"class_name": "Zeros", "config": {}}, "kernel_regularizer": null, "bias_regularizer": null, "activity_regularizer": null, "kernel_constraint": null, "bias_constraint": null}, "inbound_nodes": [[["max_pooling2d_15", 0, 0, {}]]]}, {"name": "batch_normalization_410", "class_name": "BatchNormalization", "config": {"name": "batch_normalization_410", "trainable": true, "dtype": "float32", "axis": 3, "momentum": 0.99, "epsilon": 0.001, "center": true, "scale": false, "beta_initializer": {"class_name": "Zeros", "config": {}}, "gamma_initializer": {"class_name": "Ones", "config": {}}, "moving_mean_initializer": {"class_name": "Zeros", "config": {}}, "moving_variance_initializer": {"class_name": "Ones", "config": {}}, "beta_regularizer": null, "gamma_regularizer": null, "beta_constraint": null, "gamma_constraint": null}, "inbound_nodes": [[["conv2d_410", 0, 0, {}]]]}, {"name": "activation_686", "class_name": "Activation", "config": {"name": "activation_686", "trainable": true, "dtype": "float32", "activation": "relu"}, "inbound_nodes": [[["batch_normalization_410", 0, 0, {}]]]}, {"name": "conv2d_411", "class_name": "Conv2D", "config": {"name": "conv2d_411", "trainable": true, "dtype": "float32", "filters": 192, "kernel_size": [3, 3], "strides": [1, 1], "padding": "valid", "data_format": "channels_last", "dilation_rate": [1, 1], "activation": "linear", "use_bias": false, "kernel_initializer": {"class_name": "VarianceScaling", "config": {"scale": 1.0, "mode": "fan_avg", "distribution": "uniform", "seed": null}}, "bias_initializer": {"class_name": "Zeros", "config": {}}, "kernel_regularizer": null, "bias_regularizer": null, "activity_regularizer": null, "kernel_constraint": null, "bias_constraint": null}, "inbound_nodes": [[["activation_686", 0, 0, {}]]]}, {"name": "batch_normalization_411", "class_name": "BatchNormalization", "config": {"name": "batch_normalization_411", "trainable": true, "dtype": "float32", "axis": 3, "momentum": 0.99, "epsilon": 0.001, "center": true, "scale": false, "beta_initializer": {"class_name": "Zeros", "config": {}}, "gamma_initializer": {"class_name": "Ones", "config": {}}, "moving_mean_initializer": {"class_name": "Zeros", "config": {}}, "moving_variance_initializer": {"class_name": "Ones", "config": {}}, "beta_regularizer": null, "gamma_regularizer": null, "beta_constraint": null, "gamma_constraint": null}, "inbound_nodes": [[["conv2d_411", 0, 0, {}]]]}, {"name": "activation_687", "class_name": "Activation", "config": {"name": "activation_687", "trainable": true, "dtype": "float32", "activation": "relu"}, "inbound_nodes": [[["batch_normalization_411", 0, 0, {}]]]}, {"name": "max_pooling2d_16", "class_name": "MaxPooling2D", "config": {"name": "max_pooling2d_16", "trainable": true, "dtype": "float32", "pool_size": [3, 3], "padding": "valid", "strides": [2, 2], "data_format": "channels_last"}, "inbound_nodes": [[["activation_687", 0, 0, {}]]]}, {"name": "conv2d_415", "class_name": "Conv2D", "config": {"name": "conv2d_415", "trainable": true, "dtype": "float32", "filters": 64, "kernel_size": [1, 1], "strides": [1, 1], "padding": "same", "data_format": "channels_last", "dilation_rate": [1, 1], "activation": "linear", "use_bias": false, "kernel_initializer": {"class_name": "VarianceScaling", "config": {"scale": 1.0, "mode": "fan_avg", "distribution": "uniform", "seed": null}}, "bias_initializer": {"class_name": "Zeros", "config": {}}, "kernel_regularizer": null, "bias_regularizer": null, "activity_regularizer": null, "kernel_constraint": null, "bias_constraint": null}, "inbound_nodes": [[["max_pooling2d_16", 0, 0, {}]]]}, {"name": "batch_normalization_415", "class_name": "BatchNormalization", "config": {"name": "batch_normalization_415", "trainable": true, "dtype": "float32", "axis": 3, "momentum": 0.99, "epsilon": 0.001, "center": true, "scale": false, "beta_initializer": {"class_name": "Zeros", "config": {}}, "gamma_initializer": {"class_name": "Ones", "config": {}}, "moving_mean_initializer": {"class_name": "Zeros", "config": {}}, "moving_variance_initializer": {"class_name": "Ones", "config": {}}, "beta_regularizer": null, "gamma_regularizer": null, "beta_constraint": null, "gamma_constraint": null}, "inbound_nodes": [[["conv2d_415", 0, 0, {}]]]}, {"name": "activation_691", "class_name": "Activation", "config": {"name": "activation_691", "trainable": true, "dtype": "float32", "activation": "relu"}, "inbound_nodes": [[["batch_normalization_415", 0, 0, {}]]]}, {"name": "conv2d_413", "class_name": "Conv2D", "config": {"name": "conv2d_413", "trainable": true, "dtype": "float32", "filters": 48, "kernel_size": [1, 1], "strides": [1, 1], "padding": "same", "data_format": "channels_last", "dilation_rate": [1, 1], "activation": "linear", "use_bias": false, "kernel_initializer": {"class_name": "VarianceScaling", "config": {"scale": 1.0, "mode": "fan_avg", "distribution": "uniform", "seed": null}}, "bias_initializer": {"class_name": "Zeros", "config": {}}, "kernel_regularizer": null, "bias_regularizer": null, "activity_regularizer": null, "kernel_constraint": null, "bias_constraint": null}, "inbound_nodes": [[["max_pooling2d_16", 0, 0, {}]]]}, {"name": "conv2d_416", "class_name": "Conv2D", "config": {"name": "conv2d_416", "trainable": true, "dtype": "float32", "filters": 96, "kernel_size": [3, 3], "strides": [1, 1], "padding": "same", "data_format": "channels_last", "dilation_rate": [1, 1], "activation": "linear", "use_bias": false, "kernel_initializer": {"class_name": "VarianceScaling", "config": {"scale": 1.0, "mode": "fan_avg", "distribution": "uniform", "seed": null}}, "bias_initializer": {"class_name": "Zeros", "config": {}}, "kernel_regularizer": null, "bias_regularizer": null, "activity_regularizer": null, "kernel_constraint": null, "bias_constraint": null}, "inbound_nodes": [[["activation_691", 0, 0, {}]]]}, {"name": "batch_normalization_413", "class_name": "BatchNormalization", "config": {"name": "batch_normalization_413", "trainable": true, "dtype": "float32", "axis": 3, "momentum": 0.99, "epsilon": 0.001, "center": true, "scale": false, "beta_initializer": {"class_name": "Zeros", "config": {}}, "gamma_initializer": {"class_name": "Ones", "config": {}}, "moving_mean_initializer": {"class_name": "Zeros", "config": {}}, "moving_variance_initializer": {"class_name": "Ones", "config": {}}, "beta_regularizer": null, "gamma_regularizer": null, "beta_constraint": null, "gamma_constraint": null}, "inbound_nodes": [[["conv2d_413", 0, 0, {}]]]}, {"name": "batch_normalization_416", "class_name": "BatchNormalization", "config": {"name": "batch_normalization_416", "trainable": true, "dtype": "float32", "axis": 3, "momentum": 0.99, "epsilon": 0.001, "center": true, "scale": false, "beta_initializer": {"class_name": "Zeros", "config": {}}, "gamma_initializer": {"class_name": "Ones", "config": {}}, "moving_mean_initializer": {"class_name": "Zeros", "config": {}}, "moving_variance_initializer": {"class_name": "Ones", "config": {}}, "beta_regularizer": null, "gamma_regularizer": null, "beta_constraint": null, "gamma_constraint": null}, "inbound_nodes": [[["conv2d_416", 0, 0, {}]]]}, {"name": "activation_689", "class_name": "Activation", "config": {"name": "activation_689", "trainable": true, "dtype": "float32", "activation": "relu"}, "inbound_nodes": [[["batch_normalization_413", 0, 0, {}]]]}, {"name": "activation_692", "class_name": "Activation", "config": {"name": "activation_692", "trainable": true, "dtype": "float32", "activation": "relu"}, "inbound_nodes": [[["batch_normalization_416", 0, 0, {}]]]}, {"name": "average_pooling2d_3", "class_name": "AveragePooling2D", "config": {"name": "average_pooling2d_3", "trainable": true, "dtype": "float32", "pool_size": [3, 3], "padding": "same", "strides": [1, 1], "data_format": "channels_last"}, "inbound_nodes": [[["max_pooling2d_16", 0, 0, {}]]]}, {"name": "conv2d_412", "class_name": "Conv2D", "config": {"name": "conv2d_412", "trainable": true, "dtype": "float32", "filters": 96, "kernel_size": [1, 1], "strides": [1, 1], "padding": "same", "data_format": "channels_last", "dilation_rate": [1, 1], "activation": "linear", "use_bias": false, "kernel_initializer": {"class_name": "VarianceScaling", "config": {"scale": 1.0, "mode": "fan_avg", "distribution": "uniform", "seed": null}}, "bias_initializer": {"class_name": "Zeros", "config": {}}, "kernel_regularizer": null, "bias_regularizer": null, "activity_regularizer": null, "kernel_constraint": null, "bias_constraint": null}, "inbound_nodes": [[["max_pooling2d_16", 0, 0, {}]]]}, {"name": "conv2d_414", "class_name": "Conv2D", "config": {"name": "conv2d_414", "trainable": true, "dtype": "float32", "filters": 64, "kernel_size": [5, 5], "strides": [1, 1], "padding": "same", "data_format": "channels_last", "dilation_rate": [1, 1], "activation": "linear", "use_bias": false, "kernel_initializer": {"class_name": "VarianceScaling", "config": {"scale": 1.0, "mode": "fan_avg", "distribution": "uniform", "seed": null}}, "bias_initializer": {"class_name": "Zeros", "config": {}}, "kernel_regularizer": null, "bias_regularizer": null, "activity_regularizer": null, "kernel_constraint": null, "bias_constraint": null}, "inbound_nodes": [[["activation_689", 0, 0, {}]]]}, {"name": "conv2d_417", "class_name": "Conv2D", "config": {"name": "conv2d_417", "trainable": true, "dtype": "float32", "filters": 96, "kernel_size": [3, 3], "strides": [1, 1], "padding": "same", "data_format": "channels_last", "dilation_rate": [1, 1], "activation": "linear", "use_bias": false, "kernel_initializer": {"class_name": "VarianceScaling", "config": {"scale": 1.0, "mode": "fan_avg", "distribution": "uniform", "seed": null}}, "bias_initializer": {"class_name": "Zeros", "config": {}}, "kernel_regularizer": null, "bias_regularizer": null, "activity_regularizer": null, "kernel_constraint": null, "bias_constraint": null}, "inbound_nodes": [[["activation_692", 0, 0, {}]]]}, {"name": "conv2d_418", "class_name": "Conv2D", "config": {"name": "conv2d_418", "trainable": true, "dtype": "float32", "filters": 64, "kernel_size": [1, 1], "strides": [1, 1], "padding": "same", "data_format": "channels_last", "dilation_rate": [1, 1], "activation": "linear", "use_bias": false, "kernel_initializer": {"class_name": "VarianceScaling", "config": {"scale": 1.0, "mode": "fan_avg", "distribution": "uniform", "seed": null}}, "bias_initializer": {"class_name": "Zeros", "config": {}}, "kernel_regularizer": null, "bias_regularizer": null, "activity_regularizer": null, "kernel_constraint": null, "bias_constraint": null}, "inbound_nodes": [[["average_pooling2d_3", 0, 0, {}]]]}, {"name": "batch_normalization_412", "class_name": "BatchNormalization", "config": {"name": "batch_normalization_412", "trainable": true, "dtype": "float32", "axis": 3, "momentum": 0.99, "epsilon": 0.001, "center": true, "scale": false, "beta_initializer": {"class_name": "Zeros", "config": {}}, "gamma_initializer": {"class_name": "Ones", "config": {}}, "moving_mean_initializer": {"class_name": "Zeros", "config": {}}, "moving_variance_initializer": {"class_name": "Ones", "config": {}}, "beta_regularizer": null, "gamma_regularizer": null, "beta_constraint": null, "gamma_constraint": null}, "inbound_nodes": [[["conv2d_412", 0, 0, {}]]]}, {"name": "batch_normalization_414", "class_name": "BatchNormalization", "config": {"name": "batch_normalization_414", "trainable": true, "dtype": "float32", "axis": 3, "momentum": 0.99, "epsilon": 0.001, "center": true, "scale": false, "beta_initializer": {"class_name": "Zeros", "config": {}}, "gamma_initializer": {"class_name": "Ones", "config": {}}, "moving_mean_initializer": {"class_name": "Zeros", "config": {}}, "moving_variance_initializer": {"class_name": "Ones", "config": {}}, "beta_regularizer": null, "gamma_regularizer": null, "beta_constraint": null, "gamma_constraint": null}, "inbound_nodes": [[["conv2d_414", 0, 0, {}]]]}, {"name": "batch_normalization_417", "class_name": "BatchNormalization", "config": {"name": "batch_normalization_417", "trainable": true, "dtype": "float32", "axis": 3, "momentum": 0.99, "epsilon": 0.001, "center": true, "scale": false, "beta_initializer": {"class_name": "Zeros", "config": {}}, "gamma_initializer": {"class_name": "Ones", "config": {}}, "moving_mean_initializer": {"class_name": "Zeros", "config": {}}, "moving_variance_initializer": {"class_name": "Ones", "config": {}}, "beta_regularizer": null, "gamma_regularizer": null, "beta_constraint": null, "gamma_constraint": null}, "inbound_nodes": [[["conv2d_417", 0, 0, {}]]]}, {"name": "batch_normalization_418", "class_name": "BatchNormalization", "config": {"name": "batch_normalization_418", "trainable": true, "dtype": "float32", "axis": 3, "momentum": 0.99, "epsilon": 0.001, "center": true, "scale": false, "beta_initializer": {"class_name": "Zeros", "config": {}}, "gamma_initializer": {"class_name": "Ones", "config": {}}, "moving_mean_initializer": {"class_name": "Zeros", "config": {}}, "moving_variance_initializer": {"class_name": "Ones", "config": {}}, "beta_regularizer": null, "gamma_regularizer": null, "beta_constraint": null, "gamma_constraint": null}, "inbound_nodes": [[["conv2d_418", 0, 0, {}]]]}, {"name": "activation_688", "class_name": "Activation", "config": {"name": "activation_688", "trainable": true, "dtype": "float32", "activation": "relu"}, "inbound_nodes": [[["batch_normalization_412", 0, 0, {}]]]}, {"name": "activation_690", "class_name": "Activation", "config": {"name": "activation_690", "trainable": true, "dtype": "float32", "activation": "relu"}, "inbound_nodes": [[["batch_normalization_414", 0, 0, {}]]]}, {"name": "activation_693", "class_name": "Activation", "config": {"name": "activation_693", "trainable": true, "dtype": "float32", "activation": "relu"}, "inbound_nodes": [[["batch_normalization_417", 0, 0, {}]]]}, {"name": "activation_694", "class_name": "Activation", "config": {"name": "activation_694", "trainable": true, "dtype": "float32", "activation": "relu"}, "inbound_nodes": [[["batch_normalization_418", 0, 0, {}]]]}, {"name": "mixed_5b", "class_name": "Concatenate", "config": {"name": "mixed_5b", "trainable": true, "dtype": "float32", "axis": 3}, "inbound_nodes": [[["activation_688", 0, 0, {}], ["activation_690", 0, 0, {}], ["activation_693", 0, 0, {}], ["activation_694", 0, 0, {}]]]}, {"name": "conv2d_422", "class_name": "Conv2D", "config": {"name": "conv2d_422", "trainable": true, "dtype": "float32", "filters": 32, "kernel_size": [1, 1], "strides": [1, 1], "padding": "same", "data_format": "channels_last", "dilation_rate": [1, 1], "activation": "linear", "use_bias": false, "kernel_initializer": {"class_name": "VarianceScaling", "config": {"scale": 1.0, "mode": "fan_avg", "distribution": "uniform", "seed": null}}, "bias_initializer": {"class_name": "Zeros", "config": {}}, "kernel_regularizer": null, "bias_regularizer": null, "activity_regularizer": null, "kernel_constraint": null, "bias_constraint": null}, "inbound_nodes": [[["mixed_5b", 0, 0, {}]]]}, {"name": "batch_normalization_422", "class_name": "BatchNormalization", "config": {"name": "batch_normalization_422", "trainable": true, "dtype": "float32", "axis": 3, "momentum": 0.99, "epsilon": 0.001, "center": true, "scale": false, "beta_initializer": {"class_name": "Zeros", "config": {}}, "gamma_initializer": {"class_name": "Ones", "config": {}}, "moving_mean_initializer": {"class_name": "Zeros", "config": {}}, "moving_variance_initializer": {"class_name": "Ones", "config": {}}, "beta_regularizer": null, "gamma_regularizer": null, "beta_constraint": null, "gamma_constraint": null}, "inbound_nodes": [[["conv2d_422", 0, 0, {}]]]}, {"name": "activation_698", "class_name": "Activation", "config": {"name": "activation_698", "trainable": true, "dtype": "float32", "activation": "relu"}, "inbound_nodes": [[["batch_normalization_422", 0, 0, {}]]]}, {"name": "conv2d_420", "class_name": "Conv2D", "config": {"name": "conv2d_420", "trainable": true, "dtype": "float32", "filters": 32, "kernel_size": [1, 1], "strides": [1, 1], "padding": "same", "data_format": "channels_last", "dilation_rate": [1, 1], "activation": "linear", "use_bias": false, "kernel_initializer": {"class_name": "VarianceScaling", "config": {"scale": 1.0, "mode": "fan_avg", "distribution": "uniform", "seed": null}}, "bias_initializer": {"class_name": "Zeros", "config": {}}, "kernel_regularizer": null, "bias_regularizer": null, "activity_regularizer": null, "kernel_constraint": null, "bias_constraint": null}, "inbound_nodes": [[["mixed_5b", 0, 0, {}]]]}, {"name": "conv2d_423", "class_name": "Conv2D", "config": {"name": "conv2d_423", "trainable": true, "dtype": "float32", "filters": 48, "kernel_size": [3, 3], "strides": [1, 1], "padding": "same", "data_format": "channels_last", "dilation_rate": [1, 1], "activation": "linear", "use_bias": false, "kernel_initializer": {"class_name": "VarianceScaling", "config": {"scale": 1.0, "mode": "fan_avg", "distribution": "uniform", "seed": null}}, "bias_initializer": {"class_name": "Zeros", "config": {}}, "kernel_regularizer": null, "bias_regularizer": null, "activity_regularizer": null, "kernel_constraint": null, "bias_constraint": null}, "inbound_nodes": [[["activation_698", 0, 0, {}]]]}, {"name": "batch_normalization_420", "class_name": "BatchNormalization", "config": {"name": "batch_normalization_420", "trainable": true, "dtype": "float32", "axis": 3, "momentum": 0.99, "epsilon": 0.001, "center": true, "scale": false, "beta_initializer": {"class_name": "Zeros", "config": {}}, "gamma_initializer": {"class_name": "Ones", "config": {}}, "moving_mean_initializer": {"class_name": "Zeros", "config": {}}, "moving_variance_initializer": {"class_name": "Ones", "config": {}}, "beta_regularizer": null, "gamma_regularizer": null, "beta_constraint": null, "gamma_constraint": null}, "inbound_nodes": [[["conv2d_420", 0, 0, {}]]]}, {"name": "batch_normalization_423", "class_name": "BatchNormalization", "config": {"name": "batch_normalization_423", "trainable": true, "dtype": "float32", "axis": 3, "momentum": 0.99, "epsilon": 0.001, "center": true, "scale": false, "beta_initializer": {"class_name": "Zeros", "config": {}}, "gamma_initializer": {"class_name": "Ones", "config": {}}, "moving_mean_initializer": {"class_name": "Zeros", "config": {}}, "moving_variance_initializer": {"class_name": "Ones", "config": {}}, "beta_regularizer": null, "gamma_regularizer": null, "beta_constraint": null, "gamma_constraint": null}, "inbound_nodes": [[["conv2d_423", 0, 0, {}]]]}, {"name": "activation_696", "class_name": "Activation", "config": {"name": "activation_696", "trainable": true, "dtype": "float32", "activation": "relu"}, "inbound_nodes": [[["batch_normalization_420", 0, 0, {}]]]}, {"name": "activation_699", "class_name": "Activation", "config": {"name": "activation_699", "trainable": true, "dtype": "float32", "activation": "relu"}, "inbound_nodes": [[["batch_normalization_423", 0, 0, {}]]]}, {"name": "conv2d_419", "class_name": "Conv2D", "config": {"name": "conv2d_419", "trainable": true, "dtype": "float32", "filters": 32, "kernel_size": [1, 1], "strides": [1, 1], "padding": "same", "data_format": "channels_last", "dilation_rate": [1, 1], "activation": "linear", "use_bias": false, "kernel_initializer": {"class_name": "VarianceScaling", "config": {"scale": 1.0, "mode": "fan_avg", "distribution": "uniform", "seed": null}}, "bias_initializer": {"class_name": "Zeros", "config": {}}, "kernel_regularizer": null, "bias_regularizer": null, "activity_regularizer": null, "kernel_constraint": null, "bias_constraint": null}, "inbound_nodes": [[["mixed_5b", 0, 0, {}]]]}, {"name": "conv2d_421", "class_name": "Conv2D", "config": {"name": "conv2d_421", "trainable": true, "dtype": "float32", "filters": 32, "kernel_size": [3, 3], "strides": [1, 1], "padding": "same", "data_format": "channels_last", "dilation_rate": [1, 1], "activation": "linear", "use_bias": false, "kernel_initializer": {"class_name": "VarianceScaling", "config": {"scale": 1.0, "mode": "fan_avg", "distribution": "uniform", "seed": null}}, "bias_initializer": {"class_name": "Zeros", "config": {}}, "kernel_regularizer": null, "bias_regularizer": null, "activity_regularizer": null, "kernel_constraint": null, "bias_constraint": null}, "inbound_nodes": [[["activation_696", 0, 0, {}]]]}, {"name": "conv2d_424", "class_name": "Conv2D", "config": {"name": "conv2d_424", "trainable": true, "dtype": "float32", "filters": 64, "kernel_size": [3, 3], "strides": [1, 1], "padding": "same", "data_format": "channels_last", "dilation_rate": [1, 1], "activation": "linear", "use_bias": false, "kernel_initializer": {"class_name": "VarianceScaling", "config": {"scale": 1.0, "mode": "fan_avg", "distribution": "uniform", "seed": null}}, "bias_initializer": {"class_name": "Zeros", "config": {}}, "kernel_regularizer": null, "bias_regularizer": null, "activity_regularizer": null, "kernel_constraint": null, "bias_constraint": null}, "inbound_nodes": [[["activation_699", 0, 0, {}]]]}, {"name": "batch_normalization_419", "class_name": "BatchNormalization", "config": {"name": "batch_normalization_419", "trainable": true, "dtype": "float32", "axis": 3, "momentum": 0.99, "epsilon": 0.001, "center": true, "scale": false, "beta_initializer": {"class_name": "Zeros", "config": {}}, "gamma_initializer": {"class_name": "Ones", "config": {}}, "moving_mean_initializer": {"class_name": "Zeros", "config": {}}, "moving_variance_initializer": {"class_name": "Ones", "config": {}}, "beta_regularizer": null, "gamma_regularizer": null, "beta_constraint": null, "gamma_constraint": null}, "inbound_nodes": [[["conv2d_419", 0, 0, {}]]]}, {"name": "batch_normalization_421", "class_name": "BatchNormalization", "config": {"name": "batch_normalization_421", "trainable": true, "dtype": "float32", "axis": 3, "momentum": 0.99, "epsilon": 0.001, "center": true, "scale": false, "beta_initializer": {"class_name": "Zeros", "config": {}}, "gamma_initializer": {"class_name": "Ones", "config": {}}, "moving_mean_initializer": {"class_name": "Zeros", "config": {}}, "moving_variance_initializer": {"class_name": "Ones", "config": {}}, "beta_regularizer": null, "gamma_regularizer": null, "beta_constraint": null, "gamma_constraint": null}, "inbound_nodes": [[["conv2d_421", 0, 0, {}]]]}, {"name": "batch_normalization_424", "class_name": "BatchNormalization", "config": {"name": "batch_normalization_424", "trainable": true, "dtype": "float32", "axis": 3, "momentum": 0.99, "epsilon": 0.001, "center": true, "scale": false, "beta_initializer": {"class_name": "Zeros", "config": {}}, "gamma_initializer": {"class_name": "Ones", "config": {}}, "moving_mean_initializer": {"class_name": "Zeros", "config": {}}, "moving_variance_initializer": {"class_name": "Ones", "config": {}}, "beta_regularizer": null, "gamma_regularizer": null, "beta_constraint": null, "gamma_constraint": null}, "inbound_nodes": [[["conv2d_424", 0, 0, {}]]]}, {"name": "activation_695", "class_name": "Activation", "config": {"name": "activation_695", "trainable": true, "dtype": "float32", "activation": "relu"}, "inbound_nodes": [[["batch_normalization_419", 0, 0, {}]]]}, {"name": "activation_697", "class_name": "Activation", "config": {"name": "activation_697", "trainable": true, "dtype": "float32", "activation": "relu"}, "inbound_nodes": [[["batch_normalization_421", 0, 0, {}]]]}, {"name": "activation_700", "class_name": "Activation", "config": {"name": "activation_700", "trainable": true, "dtype": "float32", "activation": "relu"}, "inbound_nodes": [[["batch_normalization_424", 0, 0, {}]]]}, {"name": "block35_1_mixed", "class_name": "Concatenate", "config": {"name": "block35_1_mixed", "trainable": true, "dtype": "float32", "axis": 3}, "inbound_nodes": [[["activation_695", 0, 0, {}], ["activation_697", 0, 0, {}], ["activation_700", 0, 0, {}]]]}, {"name": "block35_1_conv", "class_name": "Conv2D", "config": {"name": "block35_1_conv", "trainable": true, "dtype": "float32", "filters": 320, "kernel_size": [1, 1], "strides": [1, 1], "padding": "same", "data_format": "channels_last", "dilation_rate": [1, 1], "activation": "linear", "use_bias": true, "kernel_initializer": {"class_name": "VarianceScaling", "config": {"scale": 1.0, "mode": "fan_avg", "distribution": "uniform", "seed": null}}, "bias_initializer": {"class_name": "Zeros", "config": {}}, "kernel_regularizer": null, "bias_regularizer": null, "activity_regularizer": null, "kernel_constraint": null, "bias_constraint": null}, "inbound_nodes": [[["block35_1_mixed", 0, 0, {}]]]}, {"name": "block35_1", "class_name": "Lambda", "config": {"name": "block35_1", "trainable": true, "dtype": "float32", "function": ["4wIAAAAAAAAAAgAAAAMAAABTAAAAcxQAAAB8AGQBGQB8AGQCGQB8ARQAFwBTACkDTukAAAAA6QEA\nAACpACkC2gZpbnB1dHPaBXNjYWxlcgMAAAByAwAAAPpQL3Vzci9sb2NhbC9saWIvcHl0aG9uMy42\nL2Rpc3QtcGFja2FnZXMva2VyYXNfYXBwbGljYXRpb25zL2luY2VwdGlvbl9yZXNuZXRfdjIucHna\nCDxsYW1iZGE+qAAAAPMAAAAA\n", null, null], "function_type": "lambda", "output_shape": [18, 18, 320], "output_shape_type": "raw", "arguments": {"scale": 0.17}}, "inbound_nodes": [[["mixed_5b", 0, 0, {}], ["block35_1_conv", 0, 0, {}]]]}, {"name": "block35_1_ac", "class_name": "Activation", "config": {"name": "block35_1_ac", "trainable": true, "dtype": "float32", "activation": "relu"}, "inbound_nodes": [[["block35_1", 0, 0, {}]]]}, {"name": "conv2d_428", "class_name": "Conv2D", "config": {"name": "conv2d_428", "trainable": true, "dtype": "float32", "filters": 32, "kernel_size": [1, 1], "strides": [1, 1], "padding": "same", "data_format": "channels_last", "dilation_rate": [1, 1], "activation": "linear", "use_bias": false, "kernel_initializer": {"class_name": "VarianceScaling", "config": {"scale": 1.0, "mode": "fan_avg", "distribution": "uniform", "seed": null}}, "bias_initializer": {"class_name": "Zeros", "config": {}}, "kernel_regularizer": null, "bias_regularizer": null, "activity_regularizer": null, "kernel_constraint": null, "bias_constraint": null}, "inbound_nodes": [[["block35_1_ac", 0, 0, {}]]]}, {"name": "batch_normalization_428", "class_name": "BatchNormalization", "config": {"name": "batch_normalization_428", "trainable": true, "dtype": "float32", "axis": 3, "momentum": 0.99, "epsilon": 0.001, "center": true, "scale": false, "beta_initializer": {"class_name": "Zeros", "config": {}}, "gamma_initializer": {"class_name": "Ones", "config": {}}, "moving_mean_initializer": {"class_name": "Zeros", "config": {}}, "moving_variance_initializer": {"class_name": "Ones", "config": {}}, "beta_regularizer": null, "gamma_regularizer": null, "beta_constraint": null, "gamma_constraint": null}, "inbound_nodes": [[["conv2d_428", 0, 0, {}]]]}, {"name": "activation_704", "class_name": "Activation", "config": {"name": "activation_704", "trainable": true, "dtype": "float32", "activation": "relu"}, "inbound_nodes": [[["batch_normalization_428", 0, 0, {}]]]}, {"name": "conv2d_426", "class_name": "Conv2D", "config": {"name": "conv2d_426", "trainable": true, "dtype": "float32", "filters": 32, "kernel_size": [1, 1], "strides": [1, 1], "padding": "same", "data_format": "channels_last", "dilation_rate": [1, 1], "activation": "linear", "use_bias": false, "kernel_initializer": {"class_name": "VarianceScaling", "config": {"scale": 1.0, "mode": "fan_avg", "distribution": "uniform", "seed": null}}, "bias_initializer": {"class_name": "Zeros", "config": {}}, "kernel_regularizer": null, "bias_regularizer": null, "activity_regularizer": null, "kernel_constraint": null, "bias_constraint": null}, "inbound_nodes": [[["block35_1_ac", 0, 0, {}]]]}, {"name": "conv2d_429", "class_name": "Conv2D", "config": {"name": "conv2d_429", "trainable": true, "dtype": "float32", "filters": 48, "kernel_size": [3, 3], "strides": [1, 1], "padding": "same", "data_format": "channels_last", "dilation_rate": [1, 1], "activation": "linear", "use_bias": false, "kernel_initializer": {"class_name": "VarianceScaling", "config": {"scale": 1.0, "mode": "fan_avg", "distribution": "uniform", "seed": null}}, "bias_initializer": {"class_name": "Zeros", "config": {}}, "kernel_regularizer": null, "bias_regularizer": null, "activity_regularizer": null, "kernel_constraint": null, "bias_constraint": null}, "inbound_nodes": [[["activation_704", 0, 0, {}]]]}, {"name": "batch_normalization_426", "class_name": "BatchNormalization", "config": {"name": "batch_normalization_426", "trainable": true, "dtype": "float32", "axis": 3, "momentum": 0.99, "epsilon": 0.001, "center": true, "scale": false, "beta_initializer": {"class_name": "Zeros", "config": {}}, "gamma_initializer": {"class_name": "Ones", "config": {}}, "moving_mean_initializer": {"class_name": "Zeros", "config": {}}, "moving_variance_initializer": {"class_name": "Ones", "config": {}}, "beta_regularizer": null, "gamma_regularizer": null, "beta_constraint": null, "gamma_constraint": null}, "inbound_nodes": [[["conv2d_426", 0, 0, {}]]]}, {"name": "batch_normalization_429", "class_name": "BatchNormalization", "config": {"name": "batch_normalization_429", "trainable": true, "dtype": "float32", "axis": 3, "momentum": 0.99, "epsilon": 0.001, "center": true, "scale": false, "beta_initializer": {"class_name": "Zeros", "config": {}}, "gamma_initializer": {"class_name": "Ones", "config": {}}, "moving_mean_initializer": {"class_name": "Zeros", "config": {}}, "moving_variance_initializer": {"class_name": "Ones", "config": {}}, "beta_regularizer": null, "gamma_regularizer": null, "beta_constraint": null, "gamma_constraint": null}, "inbound_nodes": [[["conv2d_429", 0, 0, {}]]]}, {"name": "activation_702", "class_name": "Activation", "config": {"name": "activation_702", "trainable": true, "dtype": "float32", "activation": "relu"}, "inbound_nodes": [[["batch_normalization_426", 0, 0, {}]]]}, {"name": "activation_705", "class_name": "Activation", "config": {"name": "activation_705", "trainable": true, "dtype": "float32", "activation": "relu"}, "inbound_nodes": [[["batch_normalization_429", 0, 0, {}]]]}, {"name": "conv2d_425", "class_name": "Conv2D", "config": {"name": "conv2d_425", "trainable": true, "dtype": "float32", "filters": 32, "kernel_size": [1, 1], "strides": [1, 1], "padding": "same", "data_format": "channels_last", "dilation_rate": [1, 1], "activation": "linear", "use_bias": false, "kernel_initializer": {"class_name": "VarianceScaling", "config": {"scale": 1.0, "mode": "fan_avg", "distribution": "uniform", "seed": null}}, "bias_initializer": {"class_name": "Zeros", "config": {}}, "kernel_regularizer": null, "bias_regularizer": null, "activity_regularizer": null, "kernel_constraint": null, "bias_constraint": null}, "inbound_nodes": [[["block35_1_ac", 0, 0, {}]]]}, {"name": "conv2d_427", "class_name": "Conv2D", "config": {"name": "conv2d_427", "trainable": true, "dtype": "float32", "filters": 32, "kernel_size": [3, 3], "strides": [1, 1], "padding": "same", "data_format": "channels_last", "dilation_rate": [1, 1], "activation": "linear", "use_bias": false, "kernel_initializer": {"class_name": "VarianceScaling", "config": {"scale": 1.0, "mode": "fan_avg", "distribution": "uniform", "seed": null}}, "bias_initializer": {"class_name": "Zeros", "config": {}}, "kernel_regularizer": null, "bias_regularizer": null, "activity_regularizer": null, "kernel_constraint": null, "bias_constraint": null}, "inbound_nodes": [[["activation_702", 0, 0, {}]]]}, {"name": "conv2d_430", "class_name": "Conv2D", "config": {"name": "conv2d_430", "trainable": true, "dtype": "float32", "filters": 64, "kernel_size": [3, 3], "strides": [1, 1], "padding": "same", "data_format": "channels_last", "dilation_rate": [1, 1], "activation": "linear", "use_bias": false, "kernel_initializer": {"class_name": "VarianceScaling", "config": {"scale": 1.0, "mode": "fan_avg", "distribution": "uniform", "seed": null}}, "bias_initializer": {"class_name": "Zeros", "config": {}}, "kernel_regularizer": null, "bias_regularizer": null, "activity_regularizer": null, "kernel_constraint": null, "bias_constraint": null}, "inbound_nodes": [[["activation_705", 0, 0, {}]]]}, {"name": "batch_normalization_425", "class_name": "BatchNormalization", "config": {"name": "batch_normalization_425", "trainable": true, "dtype": "float32", "axis": 3, "momentum": 0.99, "epsilon": 0.001, "center": true, "scale": false, "beta_initializer": {"class_name": "Zeros", "config": {}}, "gamma_initializer": {"class_name": "Ones", "config": {}}, "moving_mean_initializer": {"class_name": "Zeros", "config": {}}, "moving_variance_initializer": {"class_name": "Ones", "config": {}}, "beta_regularizer": null, "gamma_regularizer": null, "beta_constraint": null, "gamma_constraint": null}, "inbound_nodes": [[["conv2d_425", 0, 0, {}]]]}, {"name": "batch_normalization_427", "class_name": "BatchNormalization", "config": {"name": "batch_normalization_427", "trainable": true, "dtype": "float32", "axis": 3, "momentum": 0.99, "epsilon": 0.001, "center": true, "scale": false, "beta_initializer": {"class_name": "Zeros", "config": {}}, "gamma_initializer": {"class_name": "Ones", "config": {}}, "moving_mean_initializer": {"class_name": "Zeros", "config": {}}, "moving_variance_initializer": {"class_name": "Ones", "config": {}}, "beta_regularizer": null, "gamma_regularizer": null, "beta_constraint": null, "gamma_constraint": null}, "inbound_nodes": [[["conv2d_427", 0, 0, {}]]]}, {"name": "batch_normalization_430", "class_name": "BatchNormalization", "config": {"name": "batch_normalization_430", "trainable": true, "dtype": "float32", "axis": 3, "momentum": 0.99, "epsilon": 0.001, "center": true, "scale": false, "beta_initializer": {"class_name": "Zeros", "config": {}}, "gamma_initializer": {"class_name": "Ones", "config": {}}, "moving_mean_initializer": {"class_name": "Zeros", "config": {}}, "moving_variance_initializer": {"class_name": "Ones", "config": {}}, "beta_regularizer": null, "gamma_regularizer": null, "beta_constraint": null, "gamma_constraint": null}, "inbound_nodes": [[["conv2d_430", 0, 0, {}]]]}, {"name": "activation_701", "class_name": "Activation", "config": {"name": "activation_701", "trainable": true, "dtype": "float32", "activation": "relu"}, "inbound_nodes": [[["batch_normalization_425", 0, 0, {}]]]}, {"name": "activation_703", "class_name": "Activation", "config": {"name": "activation_703", "trainable": true, "dtype": "float32", "activation": "relu"}, "inbound_nodes": [[["batch_normalization_427", 0, 0, {}]]]}, {"name": "activation_706", "class_name": "Activation", "config": {"name": "activation_706", "trainable": true, "dtype": "float32", "activation": "relu"}, "inbound_nodes": [[["batch_normalization_430", 0, 0, {}]]]}, {"name": "block35_2_mixed", "class_name": "Concatenate", "config": {"name": "block35_2_mixed", "trainable": true, "dtype": "float32", "axis": 3}, "inbound_nodes": [[["activation_701", 0, 0, {}], ["activation_703", 0, 0, {}], ["activation_706", 0, 0, {}]]]}, {"name": "block35_2_conv", "class_name": "Conv2D", "config": {"name": "block35_2_conv", "trainable": true, "dtype": "float32", "filters": 320, "kernel_size": [1, 1], "strides": [1, 1], "padding": "same", "data_format": "channels_last", "dilation_rate": [1, 1], "activation": "linear", "use_bias": true, "kernel_initializer": {"class_name": "VarianceScaling", "config": {"scale": 1.0, "mode": "fan_avg", "distribution": "uniform", "seed": null}}, "bias_initializer": {"class_name": "Zeros", "config": {}}, "kernel_regularizer": null, "bias_regularizer": null, "activity_regularizer": null, "kernel_constraint": null, "bias_constraint": null}, "inbound_nodes": [[["block35_2_mixed", 0, 0, {}]]]}, {"name": "block35_2", "class_name": "Lambda", "config": {"name": "block35_2", "trainable": true, "dtype": "float32", "function": ["4wIAAAAAAAAAAgAAAAMAAABTAAAAcxQAAAB8AGQBGQB8AGQCGQB8ARQAFwBTACkDTukAAAAA6QEA\nAACpACkC2gZpbnB1dHPaBXNjYWxlcgMAAAByAwAAAPpQL3Vzci9sb2NhbC9saWIvcHl0aG9uMy42\nL2Rpc3QtcGFja2FnZXMva2VyYXNfYXBwbGljYXRpb25zL2luY2VwdGlvbl9yZXNuZXRfdjIucHna\nCDxsYW1iZGE+qAAAAPMAAAAA\n", null, null], "function_type": "lambda", "output_shape": [18, 18, 320], "output_shape_type": "raw", "arguments": {"scale": 0.17}}, "inbound_nodes": [[["block35_1_ac", 0, 0, {}], ["block35_2_conv", 0, 0, {}]]]}, {"name": "block35_2_ac", "class_name": "Activation", "config": {"name": "block35_2_ac", "trainable": true, "dtype": "float32", "activation": "relu"}, "inbound_nodes": [[["block35_2", 0, 0, {}]]]}, {"name": "conv2d_434", "class_name": "Conv2D", "config": {"name": "conv2d_434", "trainable": true, "dtype": "float32", "filters": 32, "kernel_size": [1, 1], "strides": [1, 1], "padding": "same", "data_format": "channels_last", "dilation_rate": [1, 1], "activation": "linear", "use_bias": false, "kernel_initializer": {"class_name": "VarianceScaling", "config": {"scale": 1.0, "mode": "fan_avg", "distribution": "uniform", "seed": null}}, "bias_initializer": {"class_name": "Zeros", "config": {}}, "kernel_regularizer": null, "bias_regularizer": null, "activity_regularizer": null, "kernel_constraint": null, "bias_constraint": null}, "inbound_nodes": [[["block35_2_ac", 0, 0, {}]]]}, {"name": "batch_normalization_434", "class_name": "BatchNormalization", "config": {"name": "batch_normalization_434", "trainable": true, "dtype": "float32", "axis": 3, "momentum": 0.99, "epsilon": 0.001, "center": true, "scale": false, "beta_initializer": {"class_name": "Zeros", "config": {}}, "gamma_initializer": {"class_name": "Ones", "config": {}}, "moving_mean_initializer": {"class_name": "Zeros", "config": {}}, "moving_variance_initializer": {"class_name": "Ones", "config": {}}, "beta_regularizer": null, "gamma_regularizer": null, "beta_constraint": null, "gamma_constraint": null}, "inbound_nodes": [[["conv2d_434", 0, 0, {}]]]}, {"name": "activation_710", "class_name": "Activation", "config": {"name": "activation_710", "trainable": true, "dtype": "float32", "activation": "relu"}, "inbound_nodes": [[["batch_normalization_434", 0, 0, {}]]]}, {"name": "conv2d_432", "class_name": "Conv2D", "config": {"name": "conv2d_432", "trainable": true, "dtype": "float32", "filters": 32, "kernel_size": [1, 1], "strides": [1, 1], "padding": "same", "data_format": "channels_last", "dilation_rate": [1, 1], "activation": "linear", "use_bias": false, "kernel_initializer": {"class_name": "VarianceScaling", "config": {"scale": 1.0, "mode": "fan_avg", "distribution": "uniform", "seed": null}}, "bias_initializer": {"class_name": "Zeros", "config": {}}, "kernel_regularizer": null, "bias_regularizer": null, "activity_regularizer": null, "kernel_constraint": null, "bias_constraint": null}, "inbound_nodes": [[["block35_2_ac", 0, 0, {}]]]}, {"name": "conv2d_435", "class_name": "Conv2D", "config": {"name": "conv2d_435", "trainable": true, "dtype": "float32", "filters": 48, "kernel_size": [3, 3], "strides": [1, 1], "padding": "same", "data_format": "channels_last", "dilation_rate": [1, 1], "activation": "linear", "use_bias": false, "kernel_initializer": {"class_name": "VarianceScaling", "config": {"scale": 1.0, "mode": "fan_avg", "distribution": "uniform", "seed": null}}, "bias_initializer": {"class_name": "Zeros", "config": {}}, "kernel_regularizer": null, "bias_regularizer": null, "activity_regularizer": null, "kernel_constraint": null, "bias_constraint": null}, "inbound_nodes": [[["activation_710", 0, 0, {}]]]}, {"name": "batch_normalization_432", "class_name": "BatchNormalization", "config": {"name": "batch_normalization_432", "trainable": true, "dtype": "float32", "axis": 3, "momentum": 0.99, "epsilon": 0.001, "center": true, "scale": false, "beta_initializer": {"class_name": "Zeros", "config": {}}, "gamma_initializer": {"class_name": "Ones", "config": {}}, "moving_mean_initializer": {"class_name": "Zeros", "config": {}}, "moving_variance_initializer": {"class_name": "Ones", "config": {}}, "beta_regularizer": null, "gamma_regularizer": null, "beta_constraint": null, "gamma_constraint": null}, "inbound_nodes": [[["conv2d_432", 0, 0, {}]]]}, {"name": "batch_normalization_435", "class_name": "BatchNormalization", "config": {"name": "batch_normalization_435", "trainable": true, "dtype": "float32", "axis": 3, "momentum": 0.99, "epsilon": 0.001, "center": true, "scale": false, "beta_initializer": {"class_name": "Zeros", "config": {}}, "gamma_initializer": {"class_name": "Ones", "config": {}}, "moving_mean_initializer": {"class_name": "Zeros", "config": {}}, "moving_variance_initializer": {"class_name": "Ones", "config": {}}, "beta_regularizer": null, "gamma_regularizer": null, "beta_constraint": null, "gamma_constraint": null}, "inbound_nodes": [[["conv2d_435", 0, 0, {}]]]}, {"name": "activation_708", "class_name": "Activation", "config": {"name": "activation_708", "trainable": true, "dtype": "float32", "activation": "relu"}, "inbound_nodes": [[["batch_normalization_432", 0, 0, {}]]]}, {"name": "activation_711", "class_name": "Activation", "config": {"name": "activation_711", "trainable": true, "dtype": "float32", "activation": "relu"}, "inbound_nodes": [[["batch_normalization_435", 0, 0, {}]]]}, {"name": "conv2d_431", "class_name": "Conv2D", "config": {"name": "conv2d_431", "trainable": true, "dtype": "float32", "filters": 32, "kernel_size": [1, 1], "strides": [1, 1], "padding": "same", "data_format": "channels_last", "dilation_rate": [1, 1], "activation": "linear", "use_bias": false, "kernel_initializer": {"class_name": "VarianceScaling", "config": {"scale": 1.0, "mode": "fan_avg", "distribution": "uniform", "seed": null}}, "bias_initializer": {"class_name": "Zeros", "config": {}}, "kernel_regularizer": null, "bias_regularizer": null, "activity_regularizer": null, "kernel_constraint": null, "bias_constraint": null}, "inbound_nodes": [[["block35_2_ac", 0, 0, {}]]]}, {"name": "conv2d_433", "class_name": "Conv2D", "config": {"name": "conv2d_433", "trainable": true, "dtype": "float32", "filters": 32, "kernel_size": [3, 3], "strides": [1, 1], "padding": "same", "data_format": "channels_last", "dilation_rate": [1, 1], "activation": "linear", "use_bias": false, "kernel_initializer": {"class_name": "VarianceScaling", "config": {"scale": 1.0, "mode": "fan_avg", "distribution": "uniform", "seed": null}}, "bias_initializer": {"class_name": "Zeros", "config": {}}, "kernel_regularizer": null, "bias_regularizer": null, "activity_regularizer": null, "kernel_constraint": null, "bias_constraint": null}, "inbound_nodes": [[["activation_708", 0, 0, {}]]]}, {"name": "conv2d_436", "class_name": "Conv2D", "config": {"name": "conv2d_436", "trainable": true, "dtype": "float32", "filters": 64, "kernel_size": [3, 3], "strides": [1, 1], "padding": "same", "data_format": "channels_last", "dilation_rate": [1, 1], "activation": "linear", "use_bias": false, "kernel_initializer": {"class_name": "VarianceScaling", "config": {"scale": 1.0, "mode": "fan_avg", "distribution": "uniform", "seed": null}}, "bias_initializer": {"class_name": "Zeros", "config": {}}, "kernel_regularizer": null, "bias_regularizer": null, "activity_regularizer": null, "kernel_constraint": null, "bias_constraint": null}, "inbound_nodes": [[["activation_711", 0, 0, {}]]]}, {"name": "batch_normalization_431", "class_name": "BatchNormalization", "config": {"name": "batch_normalization_431", "trainable": true, "dtype": "float32", "axis": 3, "momentum": 0.99, "epsilon": 0.001, "center": true, "scale": false, "beta_initializer": {"class_name": "Zeros", "config": {}}, "gamma_initializer": {"class_name": "Ones", "config": {}}, "moving_mean_initializer": {"class_name": "Zeros", "config": {}}, "moving_variance_initializer": {"class_name": "Ones", "config": {}}, "beta_regularizer": null, "gamma_regularizer": null, "beta_constraint": null, "gamma_constraint": null}, "inbound_nodes": [[["conv2d_431", 0, 0, {}]]]}, {"name": "batch_normalization_433", "class_name": "BatchNormalization", "config": {"name": "batch_normalization_433", "trainable": true, "dtype": "float32", "axis": 3, "momentum": 0.99, "epsilon": 0.001, "center": true, "scale": false, "beta_initializer": {"class_name": "Zeros", "config": {}}, "gamma_initializer": {"class_name": "Ones", "config": {}}, "moving_mean_initializer": {"class_name": "Zeros", "config": {}}, "moving_variance_initializer": {"class_name": "Ones", "config": {}}, "beta_regularizer": null, "gamma_regularizer": null, "beta_constraint": null, "gamma_constraint": null}, "inbound_nodes": [[["conv2d_433", 0, 0, {}]]]}, {"name": "batch_normalization_436", "class_name": "BatchNormalization", "config": {"name": "batch_normalization_436", "trainable": true, "dtype": "float32", "axis": 3, "momentum": 0.99, "epsilon": 0.001, "center": true, "scale": false, "beta_initializer": {"class_name": "Zeros", "config": {}}, "gamma_initializer": {"class_name": "Ones", "config": {}}, "moving_mean_initializer": {"class_name": "Zeros", "config": {}}, "moving_variance_initializer": {"class_name": "Ones", "config": {}}, "beta_regularizer": null, "gamma_regularizer": null, "beta_constraint": null, "gamma_constraint": null}, "inbound_nodes": [[["conv2d_436", 0, 0, {}]]]}, {"name": "activation_707", "class_name": "Activation", "config": {"name": "activation_707", "trainable": true, "dtype": "float32", "activation": "relu"}, "inbound_nodes": [[["batch_normalization_431", 0, 0, {}]]]}, {"name": "activation_709", "class_name": "Activation", "config": {"name": "activation_709", "trainable": true, "dtype": "float32", "activation": "relu"}, "inbound_nodes": [[["batch_normalization_433", 0, 0, {}]]]}, {"name": "activation_712", "class_name": "Activation", "config": {"name": "activation_712", "trainable": true, "dtype": "float32", "activation": "relu"}, "inbound_nodes": [[["batch_normalization_436", 0, 0, {}]]]}, {"name": "block35_3_mixed", "class_name": "Concatenate", "config": {"name": "block35_3_mixed", "trainable": true, "dtype": "float32", "axis": 3}, "inbound_nodes": [[["activation_707", 0, 0, {}], ["activation_709", 0, 0, {}], ["activation_712", 0, 0, {}]]]}, {"name": "block35_3_conv", "class_name": "Conv2D", "config": {"name": "block35_3_conv", "trainable": true, "dtype": "float32", "filters": 320, "kernel_size": [1, 1], "strides": [1, 1], "padding": "same", "data_format": "channels_last", "dilation_rate": [1, 1], "activation": "linear", "use_bias": true, "kernel_initializer": {"class_name": "VarianceScaling", "config": {"scale": 1.0, "mode": "fan_avg", "distribution": "uniform", "seed": null}}, "bias_initializer": {"class_name": "Zeros", "config": {}}, "kernel_regularizer": null, "bias_regularizer": null, "activity_regularizer": null, "kernel_constraint": null, "bias_constraint": null}, "inbound_nodes": [[["block35_3_mixed", 0, 0, {}]]]}, {"name": "block35_3", "class_name": "Lambda", "config": {"name": "block35_3", "trainable": true, "dtype": "float32", "function": ["4wIAAAAAAAAAAgAAAAMAAABTAAAAcxQAAAB8AGQBGQB8AGQCGQB8ARQAFwBTACkDTukAAAAA6QEA\nAACpACkC2gZpbnB1dHPaBXNjYWxlcgMAAAByAwAAAPpQL3Vzci9sb2NhbC9saWIvcHl0aG9uMy42\nL2Rpc3QtcGFja2FnZXMva2VyYXNfYXBwbGljYXRpb25zL2luY2VwdGlvbl9yZXNuZXRfdjIucHna\nCDxsYW1iZGE+qAAAAPMAAAAA\n", null, null], "function_type": "lambda", "output_shape": [18, 18, 320], "output_shape_type": "raw", "arguments": {"scale": 0.17}}, "inbound_nodes": [[["block35_2_ac", 0, 0, {}], ["block35_3_conv", 0, 0, {}]]]}, {"name": "block35_3_ac", "class_name": "Activation", "config": {"name": "block35_3_ac", "trainable": true, "dtype": "float32", "activation": "relu"}, "inbound_nodes": [[["block35_3", 0, 0, {}]]]}, {"name": "conv2d_440", "class_name": "Conv2D", "config": {"name": "conv2d_440", "trainable": true, "dtype": "float32", "filters": 32, "kernel_size": [1, 1], "strides": [1, 1], "padding": "same", "data_format": "channels_last", "dilation_rate": [1, 1], "activation": "linear", "use_bias": false, "kernel_initializer": {"class_name": "VarianceScaling", "config": {"scale": 1.0, "mode": "fan_avg", "distribution": "uniform", "seed": null}}, "bias_initializer": {"class_name": "Zeros", "config": {}}, "kernel_regularizer": null, "bias_regularizer": null, "activity_regularizer": null, "kernel_constraint": null, "bias_constraint": null}, "inbound_nodes": [[["block35_3_ac", 0, 0, {}]]]}, {"name": "batch_normalization_440", "class_name": "BatchNormalization", "config": {"name": "batch_normalization_440", "trainable": true, "dtype": "float32", "axis": 3, "momentum": 0.99, "epsilon": 0.001, "center": true, "scale": false, "beta_initializer": {"class_name": "Zeros", "config": {}}, "gamma_initializer": {"class_name": "Ones", "config": {}}, "moving_mean_initializer": {"class_name": "Zeros", "config": {}}, "moving_variance_initializer": {"class_name": "Ones", "config": {}}, "beta_regularizer": null, "gamma_regularizer": null, "beta_constraint": null, "gamma_constraint": null}, "inbound_nodes": [[["conv2d_440", 0, 0, {}]]]}, {"name": "activation_716", "class_name": "Activation", "config": {"name": "activation_716", "trainable": true, "dtype": "float32", "activation": "relu"}, "inbound_nodes": [[["batch_normalization_440", 0, 0, {}]]]}, {"name": "conv2d_438", "class_name": "Conv2D", "config": {"name": "conv2d_438", "trainable": true, "dtype": "float32", "filters": 32, "kernel_size": [1, 1], "strides": [1, 1], "padding": "same", "data_format": "channels_last", "dilation_rate": [1, 1], "activation": "linear", "use_bias": false, "kernel_initializer": {"class_name": "VarianceScaling", "config": {"scale": 1.0, "mode": "fan_avg", "distribution": "uniform", "seed": null}}, "bias_initializer": {"class_name": "Zeros", "config": {}}, "kernel_regularizer": null, "bias_regularizer": null, "activity_regularizer": null, "kernel_constraint": null, "bias_constraint": null}, "inbound_nodes": [[["block35_3_ac", 0, 0, {}]]]}, {"name": "conv2d_441", "class_name": "Conv2D", "config": {"name": "conv2d_441", "trainable": true, "dtype": "float32", "filters": 48, "kernel_size": [3, 3], "strides": [1, 1], "padding": "same", "data_format": "channels_last", "dilation_rate": [1, 1], "activation": "linear", "use_bias": false, "kernel_initializer": {"class_name": "VarianceScaling", "config": {"scale": 1.0, "mode": "fan_avg", "distribution": "uniform", "seed": null}}, "bias_initializer": {"class_name": "Zeros", "config": {}}, "kernel_regularizer": null, "bias_regularizer": null, "activity_regularizer": null, "kernel_constraint": null, "bias_constraint": null}, "inbound_nodes": [[["activation_716", 0, 0, {}]]]}, {"name": "batch_normalization_438", "class_name": "BatchNormalization", "config": {"name": "batch_normalization_438", "trainable": true, "dtype": "float32", "axis": 3, "momentum": 0.99, "epsilon": 0.001, "center": true, "scale": false, "beta_initializer": {"class_name": "Zeros", "config": {}}, "gamma_initializer": {"class_name": "Ones", "config": {}}, "moving_mean_initializer": {"class_name": "Zeros", "config": {}}, "moving_variance_initializer": {"class_name": "Ones", "config": {}}, "beta_regularizer": null, "gamma_regularizer": null, "beta_constraint": null, "gamma_constraint": null}, "inbound_nodes": [[["conv2d_438", 0, 0, {}]]]}, {"name": "batch_normalization_441", "class_name": "BatchNormalization", "config": {"name": "batch_normalization_441", "trainable": true, "dtype": "float32", "axis": 3, "momentum": 0.99, "epsilon": 0.001, "center": true, "scale": false, "beta_initializer": {"class_name": "Zeros", "config": {}}, "gamma_initializer": {"class_name": "Ones", "config": {}}, "moving_mean_initializer": {"class_name": "Zeros", "config": {}}, "moving_variance_initializer": {"class_name": "Ones", "config": {}}, "beta_regularizer": null, "gamma_regularizer": null, "beta_constraint": null, "gamma_constraint": null}, "inbound_nodes": [[["conv2d_441", 0, 0, {}]]]}, {"name": "activation_714", "class_name": "Activation", "config": {"name": "activation_714", "trainable": true, "dtype": "float32", "activation": "relu"}, "inbound_nodes": [[["batch_normalization_438", 0, 0, {}]]]}, {"name": "activation_717", "class_name": "Activation", "config": {"name": "activation_717", "trainable": true, "dtype": "float32", "activation": "relu"}, "inbound_nodes": [[["batch_normalization_441", 0, 0, {}]]]}, {"name": "conv2d_437", "class_name": "Conv2D", "config": {"name": "conv2d_437", "trainable": true, "dtype": "float32", "filters": 32, "kernel_size": [1, 1], "strides": [1, 1], "padding": "same", "data_format": "channels_last", "dilation_rate": [1, 1], "activation": "linear", "use_bias": false, "kernel_initializer": {"class_name": "VarianceScaling", "config": {"scale": 1.0, "mode": "fan_avg", "distribution": "uniform", "seed": null}}, "bias_initializer": {"class_name": "Zeros", "config": {}}, "kernel_regularizer": null, "bias_regularizer": null, "activity_regularizer": null, "kernel_constraint": null, "bias_constraint": null}, "inbound_nodes": [[["block35_3_ac", 0, 0, {}]]]}, {"name": "conv2d_439", "class_name": "Conv2D", "config": {"name": "conv2d_439", "trainable": true, "dtype": "float32", "filters": 32, "kernel_size": [3, 3], "strides": [1, 1], "padding": "same", "data_format": "channels_last", "dilation_rate": [1, 1], "activation": "linear", "use_bias": false, "kernel_initializer": {"class_name": "VarianceScaling", "config": {"scale": 1.0, "mode": "fan_avg", "distribution": "uniform", "seed": null}}, "bias_initializer": {"class_name": "Zeros", "config": {}}, "kernel_regularizer": null, "bias_regularizer": null, "activity_regularizer": null, "kernel_constraint": null, "bias_constraint": null}, "inbound_nodes": [[["activation_714", 0, 0, {}]]]}, {"name": "conv2d_442", "class_name": "Conv2D", "config": {"name": "conv2d_442", "trainable": true, "dtype": "float32", "filters": 64, "kernel_size": [3, 3], "strides": [1, 1], "padding": "same", "data_format": "channels_last", "dilation_rate": [1, 1], "activation": "linear", "use_bias": false, "kernel_initializer": {"class_name": "VarianceScaling", "config": {"scale": 1.0, "mode": "fan_avg", "distribution": "uniform", "seed": null}}, "bias_initializer": {"class_name": "Zeros", "config": {}}, "kernel_regularizer": null, "bias_regularizer": null, "activity_regularizer": null, "kernel_constraint": null, "bias_constraint": null}, "inbound_nodes": [[["activation_717", 0, 0, {}]]]}, {"name": "batch_normalization_437", "class_name": "BatchNormalization", "config": {"name": "batch_normalization_437", "trainable": true, "dtype": "float32", "axis": 3, "momentum": 0.99, "epsilon": 0.001, "center": true, "scale": false, "beta_initializer": {"class_name": "Zeros", "config": {}}, "gamma_initializer": {"class_name": "Ones", "config": {}}, "moving_mean_initializer": {"class_name": "Zeros", "config": {}}, "moving_variance_initializer": {"class_name": "Ones", "config": {}}, "beta_regularizer": null, "gamma_regularizer": null, "beta_constraint": null, "gamma_constraint": null}, "inbound_nodes": [[["conv2d_437", 0, 0, {}]]]}, {"name": "batch_normalization_439", "class_name": "BatchNormalization", "config": {"name": "batch_normalization_439", "trainable": true, "dtype": "float32", "axis": 3, "momentum": 0.99, "epsilon": 0.001, "center": true, "scale": false, "beta_initializer": {"class_name": "Zeros", "config": {}}, "gamma_initializer": {"class_name": "Ones", "config": {}}, "moving_mean_initializer": {"class_name": "Zeros", "config": {}}, "moving_variance_initializer": {"class_name": "Ones", "config": {}}, "beta_regularizer": null, "gamma_regularizer": null, "beta_constraint": null, "gamma_constraint": null}, "inbound_nodes": [[["conv2d_439", 0, 0, {}]]]}, {"name": "batch_normalization_442", "class_name": "BatchNormalization", "config": {"name": "batch_normalization_442", "trainable": true, "dtype": "float32", "axis": 3, "momentum": 0.99, "epsilon": 0.001, "center": true, "scale": false, "beta_initializer": {"class_name": "Zeros", "config": {}}, "gamma_initializer": {"class_name": "Ones", "config": {}}, "moving_mean_initializer": {"class_name": "Zeros", "config": {}}, "moving_variance_initializer": {"class_name": "Ones", "config": {}}, "beta_regularizer": null, "gamma_regularizer": null, "beta_constraint": null, "gamma_constraint": null}, "inbound_nodes": [[["conv2d_442", 0, 0, {}]]]}, {"name": "activation_713", "class_name": "Activation", "config": {"name": "activation_713", "trainable": true, "dtype": "float32", "activation": "relu"}, "inbound_nodes": [[["batch_normalization_437", 0, 0, {}]]]}, {"name": "activation_715", "class_name": "Activation", "config": {"name": "activation_715", "trainable": true, "dtype": "float32", "activation": "relu"}, "inbound_nodes": [[["batch_normalization_439", 0, 0, {}]]]}, {"name": "activation_718", "class_name": "Activation", "config": {"name": "activation_718", "trainable": true, "dtype": "float32", "activation": "relu"}, "inbound_nodes": [[["batch_normalization_442", 0, 0, {}]]]}, {"name": "block35_4_mixed", "class_name": "Concatenate", "config": {"name": "block35_4_mixed", "trainable": true, "dtype": "float32", "axis": 3}, "inbound_nodes": [[["activation_713", 0, 0, {}], ["activation_715", 0, 0, {}], ["activation_718", 0, 0, {}]]]}, {"name": "block35_4_conv", "class_name": "Conv2D", "config": {"name": "block35_4_conv", "trainable": true, "dtype": "float32", "filters": 320, "kernel_size": [1, 1], "strides": [1, 1], "padding": "same", "data_format": "channels_last", "dilation_rate": [1, 1], "activation": "linear", "use_bias": true, "kernel_initializer": {"class_name": "VarianceScaling", "config": {"scale": 1.0, "mode": "fan_avg", "distribution": "uniform", "seed": null}}, "bias_initializer": {"class_name": "Zeros", "config": {}}, "kernel_regularizer": null, "bias_regularizer": null, "activity_regularizer": null, "kernel_constraint": null, "bias_constraint": null}, "inbound_nodes": [[["block35_4_mixed", 0, 0, {}]]]}, {"name": "block35_4", "class_name": "Lambda", "config": {"name": "block35_4", "trainable": true, "dtype": "float32", "function": ["4wIAAAAAAAAAAgAAAAMAAABTAAAAcxQAAAB8AGQBGQB8AGQCGQB8ARQAFwBTACkDTukAAAAA6QEA\nAACpACkC2gZpbnB1dHPaBXNjYWxlcgMAAAByAwAAAPpQL3Vzci9sb2NhbC9saWIvcHl0aG9uMy42\nL2Rpc3QtcGFja2FnZXMva2VyYXNfYXBwbGljYXRpb25zL2luY2VwdGlvbl9yZXNuZXRfdjIucHna\nCDxsYW1iZGE+qAAAAPMAAAAA\n", null, null], "function_type": "lambda", "output_shape": [18, 18, 320], "output_shape_type": "raw", "arguments": {"scale": 0.17}}, "inbound_nodes": [[["block35_3_ac", 0, 0, {}], ["block35_4_conv", 0, 0, {}]]]}, {"name": "block35_4_ac", "class_name": "Activation", "config": {"name": "block35_4_ac", "trainable": true, "dtype": "float32", "activation": "relu"}, "inbound_nodes": [[["block35_4", 0, 0, {}]]]}, {"name": "conv2d_446", "class_name": "Conv2D", "config": {"name": "conv2d_446", "trainable": true, "dtype": "float32", "filters": 32, "kernel_size": [1, 1], "strides": [1, 1], "padding": "same", "data_format": "channels_last", "dilation_rate": [1, 1], "activation": "linear", "use_bias": false, "kernel_initializer": {"class_name": "VarianceScaling", "config": {"scale": 1.0, "mode": "fan_avg", "distribution": "uniform", "seed": null}}, "bias_initializer": {"class_name": "Zeros", "config": {}}, "kernel_regularizer": null, "bias_regularizer": null, "activity_regularizer": null, "kernel_constraint": null, "bias_constraint": null}, "inbound_nodes": [[["block35_4_ac", 0, 0, {}]]]}, {"name": "batch_normalization_446", "class_name": "BatchNormalization", "config": {"name": "batch_normalization_446", "trainable": true, "dtype": "float32", "axis": 3, "momentum": 0.99, "epsilon": 0.001, "center": true, "scale": false, "beta_initializer": {"class_name": "Zeros", "config": {}}, "gamma_initializer": {"class_name": "Ones", "config": {}}, "moving_mean_initializer": {"class_name": "Zeros", "config": {}}, "moving_variance_initializer": {"class_name": "Ones", "config": {}}, "beta_regularizer": null, "gamma_regularizer": null, "beta_constraint": null, "gamma_constraint": null}, "inbound_nodes": [[["conv2d_446", 0, 0, {}]]]}, {"name": "activation_722", "class_name": "Activation", "config": {"name": "activation_722", "trainable": true, "dtype": "float32", "activation": "relu"}, "inbound_nodes": [[["batch_normalization_446", 0, 0, {}]]]}, {"name": "conv2d_444", "class_name": "Conv2D", "config": {"name": "conv2d_444", "trainable": true, "dtype": "float32", "filters": 32, "kernel_size": [1, 1], "strides": [1, 1], "padding": "same", "data_format": "channels_last", "dilation_rate": [1, 1], "activation": "linear", "use_bias": false, "kernel_initializer": {"class_name": "VarianceScaling", "config": {"scale": 1.0, "mode": "fan_avg", "distribution": "uniform", "seed": null}}, "bias_initializer": {"class_name": "Zeros", "config": {}}, "kernel_regularizer": null, "bias_regularizer": null, "activity_regularizer": null, "kernel_constraint": null, "bias_constraint": null}, "inbound_nodes": [[["block35_4_ac", 0, 0, {}]]]}, {"name": "conv2d_447", "class_name": "Conv2D", "config": {"name": "conv2d_447", "trainable": true, "dtype": "float32", "filters": 48, "kernel_size": [3, 3], "strides": [1, 1], "padding": "same", "data_format": "channels_last", "dilation_rate": [1, 1], "activation": "linear", "use_bias": false, "kernel_initializer": {"class_name": "VarianceScaling", "config": {"scale": 1.0, "mode": "fan_avg", "distribution": "uniform", "seed": null}}, "bias_initializer": {"class_name": "Zeros", "config": {}}, "kernel_regularizer": null, "bias_regularizer": null, "activity_regularizer": null, "kernel_constraint": null, "bias_constraint": null}, "inbound_nodes": [[["activation_722", 0, 0, {}]]]}, {"name": "batch_normalization_444", "class_name": "BatchNormalization", "config": {"name": "batch_normalization_444", "trainable": true, "dtype": "float32", "axis": 3, "momentum": 0.99, "epsilon": 0.001, "center": true, "scale": false, "beta_initializer": {"class_name": "Zeros", "config": {}}, "gamma_initializer": {"class_name": "Ones", "config": {}}, "moving_mean_initializer": {"class_name": "Zeros", "config": {}}, "moving_variance_initializer": {"class_name": "Ones", "config": {}}, "beta_regularizer": null, "gamma_regularizer": null, "beta_constraint": null, "gamma_constraint": null}, "inbound_nodes": [[["conv2d_444", 0, 0, {}]]]}, {"name": "batch_normalization_447", "class_name": "BatchNormalization", "config": {"name": "batch_normalization_447", "trainable": true, "dtype": "float32", "axis": 3, "momentum": 0.99, "epsilon": 0.001, "center": true, "scale": false, "beta_initializer": {"class_name": "Zeros", "config": {}}, "gamma_initializer": {"class_name": "Ones", "config": {}}, "moving_mean_initializer": {"class_name": "Zeros", "config": {}}, "moving_variance_initializer": {"class_name": "Ones", "config": {}}, "beta_regularizer": null, "gamma_regularizer": null, "beta_constraint": null, "gamma_constraint": null}, "inbound_nodes": [[["conv2d_447", 0, 0, {}]]]}, {"name": "activation_720", "class_name": "Activation", "config": {"name": "activation_720", "trainable": true, "dtype": "float32", "activation": "relu"}, "inbound_nodes": [[["batch_normalization_444", 0, 0, {}]]]}, {"name": "activation_723", "class_name": "Activation", "config": {"name": "activation_723", "trainable": true, "dtype": "float32", "activation": "relu"}, "inbound_nodes": [[["batch_normalization_447", 0, 0, {}]]]}, {"name": "conv2d_443", "class_name": "Conv2D", "config": {"name": "conv2d_443", "trainable": true, "dtype": "float32", "filters": 32, "kernel_size": [1, 1], "strides": [1, 1], "padding": "same", "data_format": "channels_last", "dilation_rate": [1, 1], "activation": "linear", "use_bias": false, "kernel_initializer": {"class_name": "VarianceScaling", "config": {"scale": 1.0, "mode": "fan_avg", "distribution": "uniform", "seed": null}}, "bias_initializer": {"class_name": "Zeros", "config": {}}, "kernel_regularizer": null, "bias_regularizer": null, "activity_regularizer": null, "kernel_constraint": null, "bias_constraint": null}, "inbound_nodes": [[["block35_4_ac", 0, 0, {}]]]}, {"name": "conv2d_445", "class_name": "Conv2D", "config": {"name": "conv2d_445", "trainable": true, "dtype": "float32", "filters": 32, "kernel_size": [3, 3], "strides": [1, 1], "padding": "same", "data_format": "channels_last", "dilation_rate": [1, 1], "activation": "linear", "use_bias": false, "kernel_initializer": {"class_name": "VarianceScaling", "config": {"scale": 1.0, "mode": "fan_avg", "distribution": "uniform", "seed": null}}, "bias_initializer": {"class_name": "Zeros", "config": {}}, "kernel_regularizer": null, "bias_regularizer": null, "activity_regularizer": null, "kernel_constraint": null, "bias_constraint": null}, "inbound_nodes": [[["activation_720", 0, 0, {}]]]}, {"name": "conv2d_448", "class_name": "Conv2D", "config": {"name": "conv2d_448", "trainable": true, "dtype": "float32", "filters": 64, "kernel_size": [3, 3], "strides": [1, 1], "padding": "same", "data_format": "channels_last", "dilation_rate": [1, 1], "activation": "linear", "use_bias": false, "kernel_initializer": {"class_name": "VarianceScaling", "config": {"scale": 1.0, "mode": "fan_avg", "distribution": "uniform", "seed": null}}, "bias_initializer": {"class_name": "Zeros", "config": {}}, "kernel_regularizer": null, "bias_regularizer": null, "activity_regularizer": null, "kernel_constraint": null, "bias_constraint": null}, "inbound_nodes": [[["activation_723", 0, 0, {}]]]}, {"name": "batch_normalization_443", "class_name": "BatchNormalization", "config": {"name": "batch_normalization_443", "trainable": true, "dtype": "float32", "axis": 3, "momentum": 0.99, "epsilon": 0.001, "center": true, "scale": false, "beta_initializer": {"class_name": "Zeros", "config": {}}, "gamma_initializer": {"class_name": "Ones", "config": {}}, "moving_mean_initializer": {"class_name": "Zeros", "config": {}}, "moving_variance_initializer": {"class_name": "Ones", "config": {}}, "beta_regularizer": null, "gamma_regularizer": null, "beta_constraint": null, "gamma_constraint": null}, "inbound_nodes": [[["conv2d_443", 0, 0, {}]]]}, {"name": "batch_normalization_445", "class_name": "BatchNormalization", "config": {"name": "batch_normalization_445", "trainable": true, "dtype": "float32", "axis": 3, "momentum": 0.99, "epsilon": 0.001, "center": true, "scale": false, "beta_initializer": {"class_name": "Zeros", "config": {}}, "gamma_initializer": {"class_name": "Ones", "config": {}}, "moving_mean_initializer": {"class_name": "Zeros", "config": {}}, "moving_variance_initializer": {"class_name": "Ones", "config": {}}, "beta_regularizer": null, "gamma_regularizer": null, "beta_constraint": null, "gamma_constraint": null}, "inbound_nodes": [[["conv2d_445", 0, 0, {}]]]}, {"name": "batch_normalization_448", "class_name": "BatchNormalization", "config": {"name": "batch_normalization_448", "trainable": true, "dtype": "float32", "axis": 3, "momentum": 0.99, "epsilon": 0.001, "center": true, "scale": false, "beta_initializer": {"class_name": "Zeros", "config": {}}, "gamma_initializer": {"class_name": "Ones", "config": {}}, "moving_mean_initializer": {"class_name": "Zeros", "config": {}}, "moving_variance_initializer": {"class_name": "Ones", "config": {}}, "beta_regularizer": null, "gamma_regularizer": null, "beta_constraint": null, "gamma_constraint": null}, "inbound_nodes": [[["conv2d_448", 0, 0, {}]]]}, {"name": "activation_719", "class_name": "Activation", "config": {"name": "activation_719", "trainable": true, "dtype": "float32", "activation": "relu"}, "inbound_nodes": [[["batch_normalization_443", 0, 0, {}]]]}, {"name": "activation_721", "class_name": "Activation", "config": {"name": "activation_721", "trainable": true, "dtype": "float32", "activation": "relu"}, "inbound_nodes": [[["batch_normalization_445", 0, 0, {}]]]}, {"name": "activation_724", "class_name": "Activation", "config": {"name": "activation_724", "trainable": true, "dtype": "float32", "activation": "relu"}, "inbound_nodes": [[["batch_normalization_448", 0, 0, {}]]]}, {"name": "block35_5_mixed", "class_name": "Concatenate", "config": {"name": "block35_5_mixed", "trainable": true, "dtype": "float32", "axis": 3}, "inbound_nodes": [[["activation_719", 0, 0, {}], ["activation_721", 0, 0, {}], ["activation_724", 0, 0, {}]]]}, {"name": "block35_5_conv", "class_name": "Conv2D", "config": {"name": "block35_5_conv", "trainable": true, "dtype": "float32", "filters": 320, "kernel_size": [1, 1], "strides": [1, 1], "padding": "same", "data_format": "channels_last", "dilation_rate": [1, 1], "activation": "linear", "use_bias": true, "kernel_initializer": {"class_name": "VarianceScaling", "config": {"scale": 1.0, "mode": "fan_avg", "distribution": "uniform", "seed": null}}, "bias_initializer": {"class_name": "Zeros", "config": {}}, "kernel_regularizer": null, "bias_regularizer": null, "activity_regularizer": null, "kernel_constraint": null, "bias_constraint": null}, "inbound_nodes": [[["block35_5_mixed", 0, 0, {}]]]}, {"name": "block35_5", "class_name": "Lambda", "config": {"name": "block35_5", "trainable": true, "dtype": "float32", "function": ["4wIAAAAAAAAAAgAAAAMAAABTAAAAcxQAAAB8AGQBGQB8AGQCGQB8ARQAFwBTACkDTukAAAAA6QEA\nAACpACkC2gZpbnB1dHPaBXNjYWxlcgMAAAByAwAAAPpQL3Vzci9sb2NhbC9saWIvcHl0aG9uMy42\nL2Rpc3QtcGFja2FnZXMva2VyYXNfYXBwbGljYXRpb25zL2luY2VwdGlvbl9yZXNuZXRfdjIucHna\nCDxsYW1iZGE+qAAAAPMAAAAA\n", null, null], "function_type": "lambda", "output_shape": [18, 18, 320], "output_shape_type": "raw", "arguments": {"scale": 0.17}}, "inbound_nodes": [[["block35_4_ac", 0, 0, {}], ["block35_5_conv", 0, 0, {}]]]}, {"name": "block35_5_ac", "class_name": "Activation", "config": {"name": "block35_5_ac", "trainable": true, "dtype": "float32", "activation": "relu"}, "inbound_nodes": [[["block35_5", 0, 0, {}]]]}, {"name": "conv2d_452", "class_name": "Conv2D", "config": {"name": "conv2d_452", "trainable": true, "dtype": "float32", "filters": 32, "kernel_size": [1, 1], "strides": [1, 1], "padding": "same", "data_format": "channels_last", "dilation_rate": [1, 1], "activation": "linear", "use_bias": false, "kernel_initializer": {"class_name": "VarianceScaling", "config": {"scale": 1.0, "mode": "fan_avg", "distribution": "uniform", "seed": null}}, "bias_initializer": {"class_name": "Zeros", "config": {}}, "kernel_regularizer": null, "bias_regularizer": null, "activity_regularizer": null, "kernel_constraint": null, "bias_constraint": null}, "inbound_nodes": [[["block35_5_ac", 0, 0, {}]]]}, {"name": "batch_normalization_452", "class_name": "BatchNormalization", "config": {"name": "batch_normalization_452", "trainable": true, "dtype": "float32", "axis": 3, "momentum": 0.99, "epsilon": 0.001, "center": true, "scale": false, "beta_initializer": {"class_name": "Zeros", "config": {}}, "gamma_initializer": {"class_name": "Ones", "config": {}}, "moving_mean_initializer": {"class_name": "Zeros", "config": {}}, "moving_variance_initializer": {"class_name": "Ones", "config": {}}, "beta_regularizer": null, "gamma_regularizer": null, "beta_constraint": null, "gamma_constraint": null}, "inbound_nodes": [[["conv2d_452", 0, 0, {}]]]}, {"name": "activation_728", "class_name": "Activation", "config": {"name": "activation_728", "trainable": true, "dtype": "float32", "activation": "relu"}, "inbound_nodes": [[["batch_normalization_452", 0, 0, {}]]]}, {"name": "conv2d_450", "class_name": "Conv2D", "config": {"name": "conv2d_450", "trainable": true, "dtype": "float32", "filters": 32, "kernel_size": [1, 1], "strides": [1, 1], "padding": "same", "data_format": "channels_last", "dilation_rate": [1, 1], "activation": "linear", "use_bias": false, "kernel_initializer": {"class_name": "VarianceScaling", "config": {"scale": 1.0, "mode": "fan_avg", "distribution": "uniform", "seed": null}}, "bias_initializer": {"class_name": "Zeros", "config": {}}, "kernel_regularizer": null, "bias_regularizer": null, "activity_regularizer": null, "kernel_constraint": null, "bias_constraint": null}, "inbound_nodes": [[["block35_5_ac", 0, 0, {}]]]}, {"name": "conv2d_453", "class_name": "Conv2D", "config": {"name": "conv2d_453", "trainable": true, "dtype": "float32", "filters": 48, "kernel_size": [3, 3], "strides": [1, 1], "padding": "same", "data_format": "channels_last", "dilation_rate": [1, 1], "activation": "linear", "use_bias": false, "kernel_initializer": {"class_name": "VarianceScaling", "config": {"scale": 1.0, "mode": "fan_avg", "distribution": "uniform", "seed": null}}, "bias_initializer": {"class_name": "Zeros", "config": {}}, "kernel_regularizer": null, "bias_regularizer": null, "activity_regularizer": null, "kernel_constraint": null, "bias_constraint": null}, "inbound_nodes": [[["activation_728", 0, 0, {}]]]}, {"name": "batch_normalization_450", "class_name": "BatchNormalization", "config": {"name": "batch_normalization_450", "trainable": true, "dtype": "float32", "axis": 3, "momentum": 0.99, "epsilon": 0.001, "center": true, "scale": false, "beta_initializer": {"class_name": "Zeros", "config": {}}, "gamma_initializer": {"class_name": "Ones", "config": {}}, "moving_mean_initializer": {"class_name": "Zeros", "config": {}}, "moving_variance_initializer": {"class_name": "Ones", "config": {}}, "beta_regularizer": null, "gamma_regularizer": null, "beta_constraint": null, "gamma_constraint": null}, "inbound_nodes": [[["conv2d_450", 0, 0, {}]]]}, {"name": "batch_normalization_453", "class_name": "BatchNormalization", "config": {"name": "batch_normalization_453", "trainable": true, "dtype": "float32", "axis": 3, "momentum": 0.99, "epsilon": 0.001, "center": true, "scale": false, "beta_initializer": {"class_name": "Zeros", "config": {}}, "gamma_initializer": {"class_name": "Ones", "config": {}}, "moving_mean_initializer": {"class_name": "Zeros", "config": {}}, "moving_variance_initializer": {"class_name": "Ones", "config": {}}, "beta_regularizer": null, "gamma_regularizer": null, "beta_constraint": null, "gamma_constraint": null}, "inbound_nodes": [[["conv2d_453", 0, 0, {}]]]}, {"name": "activation_726", "class_name": "Activation", "config": {"name": "activation_726", "trainable": true, "dtype": "float32", "activation": "relu"}, "inbound_nodes": [[["batch_normalization_450", 0, 0, {}]]]}, {"name": "activation_729", "class_name": "Activation", "config": {"name": "activation_729", "trainable": true, "dtype": "float32", "activation": "relu"}, "inbound_nodes": [[["batch_normalization_453", 0, 0, {}]]]}, {"name": "conv2d_449", "class_name": "Conv2D", "config": {"name": "conv2d_449", "trainable": true, "dtype": "float32", "filters": 32, "kernel_size": [1, 1], "strides": [1, 1], "padding": "same", "data_format": "channels_last", "dilation_rate": [1, 1], "activation": "linear", "use_bias": false, "kernel_initializer": {"class_name": "VarianceScaling", "config": {"scale": 1.0, "mode": "fan_avg", "distribution": "uniform", "seed": null}}, "bias_initializer": {"class_name": "Zeros", "config": {}}, "kernel_regularizer": null, "bias_regularizer": null, "activity_regularizer": null, "kernel_constraint": null, "bias_constraint": null}, "inbound_nodes": [[["block35_5_ac", 0, 0, {}]]]}, {"name": "conv2d_451", "class_name": "Conv2D", "config": {"name": "conv2d_451", "trainable": true, "dtype": "float32", "filters": 32, "kernel_size": [3, 3], "strides": [1, 1], "padding": "same", "data_format": "channels_last", "dilation_rate": [1, 1], "activation": "linear", "use_bias": false, "kernel_initializer": {"class_name": "VarianceScaling", "config": {"scale": 1.0, "mode": "fan_avg", "distribution": "uniform", "seed": null}}, "bias_initializer": {"class_name": "Zeros", "config": {}}, "kernel_regularizer": null, "bias_regularizer": null, "activity_regularizer": null, "kernel_constraint": null, "bias_constraint": null}, "inbound_nodes": [[["activation_726", 0, 0, {}]]]}, {"name": "conv2d_454", "class_name": "Conv2D", "config": {"name": "conv2d_454", "trainable": true, "dtype": "float32", "filters": 64, "kernel_size": [3, 3], "strides": [1, 1], "padding": "same", "data_format": "channels_last", "dilation_rate": [1, 1], "activation": "linear", "use_bias": false, "kernel_initializer": {"class_name": "VarianceScaling", "config": {"scale": 1.0, "mode": "fan_avg", "distribution": "uniform", "seed": null}}, "bias_initializer": {"class_name": "Zeros", "config": {}}, "kernel_regularizer": null, "bias_regularizer": null, "activity_regularizer": null, "kernel_constraint": null, "bias_constraint": null}, "inbound_nodes": [[["activation_729", 0, 0, {}]]]}, {"name": "batch_normalization_449", "class_name": "BatchNormalization", "config": {"name": "batch_normalization_449", "trainable": true, "dtype": "float32", "axis": 3, "momentum": 0.99, "epsilon": 0.001, "center": true, "scale": false, "beta_initializer": {"class_name": "Zeros", "config": {}}, "gamma_initializer": {"class_name": "Ones", "config": {}}, "moving_mean_initializer": {"class_name": "Zeros", "config": {}}, "moving_variance_initializer": {"class_name": "Ones", "config": {}}, "beta_regularizer": null, "gamma_regularizer": null, "beta_constraint": null, "gamma_constraint": null}, "inbound_nodes": [[["conv2d_449", 0, 0, {}]]]}, {"name": "batch_normalization_451", "class_name": "BatchNormalization", "config": {"name": "batch_normalization_451", "trainable": true, "dtype": "float32", "axis": 3, "momentum": 0.99, "epsilon": 0.001, "center": true, "scale": false, "beta_initializer": {"class_name": "Zeros", "config": {}}, "gamma_initializer": {"class_name": "Ones", "config": {}}, "moving_mean_initializer": {"class_name": "Zeros", "config": {}}, "moving_variance_initializer": {"class_name": "Ones", "config": {}}, "beta_regularizer": null, "gamma_regularizer": null, "beta_constraint": null, "gamma_constraint": null}, "inbound_nodes": [[["conv2d_451", 0, 0, {}]]]}, {"name": "batch_normalization_454", "class_name": "BatchNormalization", "config": {"name": "batch_normalization_454", "trainable": true, "dtype": "float32", "axis": 3, "momentum": 0.99, "epsilon": 0.001, "center": true, "scale": false, "beta_initializer": {"class_name": "Zeros", "config": {}}, "gamma_initializer": {"class_name": "Ones", "config": {}}, "moving_mean_initializer": {"class_name": "Zeros", "config": {}}, "moving_variance_initializer": {"class_name": "Ones", "config": {}}, "beta_regularizer": null, "gamma_regularizer": null, "beta_constraint": null, "gamma_constraint": null}, "inbound_nodes": [[["conv2d_454", 0, 0, {}]]]}, {"name": "activation_725", "class_name": "Activation", "config": {"name": "activation_725", "trainable": true, "dtype": "float32", "activation": "relu"}, "inbound_nodes": [[["batch_normalization_449", 0, 0, {}]]]}, {"name": "activation_727", "class_name": "Activation", "config": {"name": "activation_727", "trainable": true, "dtype": "float32", "activation": "relu"}, "inbound_nodes": [[["batch_normalization_451", 0, 0, {}]]]}, {"name": "activation_730", "class_name": "Activation", "config": {"name": "activation_730", "trainable": true, "dtype": "float32", "activation": "relu"}, "inbound_nodes": [[["batch_normalization_454", 0, 0, {}]]]}, {"name": "block35_6_mixed", "class_name": "Concatenate", "config": {"name": "block35_6_mixed", "trainable": true, "dtype": "float32", "axis": 3}, "inbound_nodes": [[["activation_725", 0, 0, {}], ["activation_727", 0, 0, {}], ["activation_730", 0, 0, {}]]]}, {"name": "block35_6_conv", "class_name": "Conv2D", "config": {"name": "block35_6_conv", "trainable": true, "dtype": "float32", "filters": 320, "kernel_size": [1, 1], "strides": [1, 1], "padding": "same", "data_format": "channels_last", "dilation_rate": [1, 1], "activation": "linear", "use_bias": true, "kernel_initializer": {"class_name": "VarianceScaling", "config": {"scale": 1.0, "mode": "fan_avg", "distribution": "uniform", "seed": null}}, "bias_initializer": {"class_name": "Zeros", "config": {}}, "kernel_regularizer": null, "bias_regularizer": null, "activity_regularizer": null, "kernel_constraint": null, "bias_constraint": null}, "inbound_nodes": [[["block35_6_mixed", 0, 0, {}]]]}, {"name": "block35_6", "class_name": "Lambda", "config": {"name": "block35_6", "trainable": true, "dtype": "float32", "function": ["4wIAAAAAAAAAAgAAAAMAAABTAAAAcxQAAAB8AGQBGQB8AGQCGQB8ARQAFwBTACkDTukAAAAA6QEA\nAACpACkC2gZpbnB1dHPaBXNjYWxlcgMAAAByAwAAAPpQL3Vzci9sb2NhbC9saWIvcHl0aG9uMy42\nL2Rpc3QtcGFja2FnZXMva2VyYXNfYXBwbGljYXRpb25zL2luY2VwdGlvbl9yZXNuZXRfdjIucHna\nCDxsYW1iZGE+qAAAAPMAAAAA\n", null, null], "function_type": "lambda", "output_shape": [18, 18, 320], "output_shape_type": "raw", "arguments": {"scale": 0.17}}, "inbound_nodes": [[["block35_5_ac", 0, 0, {}], ["block35_6_conv", 0, 0, {}]]]}, {"name": "block35_6_ac", "class_name": "Activation", "config": {"name": "block35_6_ac", "trainable": true, "dtype": "float32", "activation": "relu"}, "inbound_nodes": [[["block35_6", 0, 0, {}]]]}, {"name": "conv2d_458", "class_name": "Conv2D", "config": {"name": "conv2d_458", "trainable": true, "dtype": "float32", "filters": 32, "kernel_size": [1, 1], "strides": [1, 1], "padding": "same", "data_format": "channels_last", "dilation_rate": [1, 1], "activation": "linear", "use_bias": false, "kernel_initializer": {"class_name": "VarianceScaling", "config": {"scale": 1.0, "mode": "fan_avg", "distribution": "uniform", "seed": null}}, "bias_initializer": {"class_name": "Zeros", "config": {}}, "kernel_regularizer": null, "bias_regularizer": null, "activity_regularizer": null, "kernel_constraint": null, "bias_constraint": null}, "inbound_nodes": [[["block35_6_ac", 0, 0, {}]]]}, {"name": "batch_normalization_458", "class_name": "BatchNormalization", "config": {"name": "batch_normalization_458", "trainable": true, "dtype": "float32", "axis": 3, "momentum": 0.99, "epsilon": 0.001, "center": true, "scale": false, "beta_initializer": {"class_name": "Zeros", "config": {}}, "gamma_initializer": {"class_name": "Ones", "config": {}}, "moving_mean_initializer": {"class_name": "Zeros", "config": {}}, "moving_variance_initializer": {"class_name": "Ones", "config": {}}, "beta_regularizer": null, "gamma_regularizer": null, "beta_constraint": null, "gamma_constraint": null}, "inbound_nodes": [[["conv2d_458", 0, 0, {}]]]}, {"name": "activation_734", "class_name": "Activation", "config": {"name": "activation_734", "trainable": true, "dtype": "float32", "activation": "relu"}, "inbound_nodes": [[["batch_normalization_458", 0, 0, {}]]]}, {"name": "conv2d_456", "class_name": "Conv2D", "config": {"name": "conv2d_456", "trainable": true, "dtype": "float32", "filters": 32, "kernel_size": [1, 1], "strides": [1, 1], "padding": "same", "data_format": "channels_last", "dilation_rate": [1, 1], "activation": "linear", "use_bias": false, "kernel_initializer": {"class_name": "VarianceScaling", "config": {"scale": 1.0, "mode": "fan_avg", "distribution": "uniform", "seed": null}}, "bias_initializer": {"class_name": "Zeros", "config": {}}, "kernel_regularizer": null, "bias_regularizer": null, "activity_regularizer": null, "kernel_constraint": null, "bias_constraint": null}, "inbound_nodes": [[["block35_6_ac", 0, 0, {}]]]}, {"name": "conv2d_459", "class_name": "Conv2D", "config": {"name": "conv2d_459", "trainable": true, "dtype": "float32", "filters": 48, "kernel_size": [3, 3], "strides": [1, 1], "padding": "same", "data_format": "channels_last", "dilation_rate": [1, 1], "activation": "linear", "use_bias": false, "kernel_initializer": {"class_name": "VarianceScaling", "config": {"scale": 1.0, "mode": "fan_avg", "distribution": "uniform", "seed": null}}, "bias_initializer": {"class_name": "Zeros", "config": {}}, "kernel_regularizer": null, "bias_regularizer": null, "activity_regularizer": null, "kernel_constraint": null, "bias_constraint": null}, "inbound_nodes": [[["activation_734", 0, 0, {}]]]}, {"name": "batch_normalization_456", "class_name": "BatchNormalization", "config": {"name": "batch_normalization_456", "trainable": true, "dtype": "float32", "axis": 3, "momentum": 0.99, "epsilon": 0.001, "center": true, "scale": false, "beta_initializer": {"class_name": "Zeros", "config": {}}, "gamma_initializer": {"class_name": "Ones", "config": {}}, "moving_mean_initializer": {"class_name": "Zeros", "config": {}}, "moving_variance_initializer": {"class_name": "Ones", "config": {}}, "beta_regularizer": null, "gamma_regularizer": null, "beta_constraint": null, "gamma_constraint": null}, "inbound_nodes": [[["conv2d_456", 0, 0, {}]]]}, {"name": "batch_normalization_459", "class_name": "BatchNormalization", "config": {"name": "batch_normalization_459", "trainable": true, "dtype": "float32", "axis": 3, "momentum": 0.99, "epsilon": 0.001, "center": true, "scale": false, "beta_initializer": {"class_name": "Zeros", "config": {}}, "gamma_initializer": {"class_name": "Ones", "config": {}}, "moving_mean_initializer": {"class_name": "Zeros", "config": {}}, "moving_variance_initializer": {"class_name": "Ones", "config": {}}, "beta_regularizer": null, "gamma_regularizer": null, "beta_constraint": null, "gamma_constraint": null}, "inbound_nodes": [[["conv2d_459", 0, 0, {}]]]}, {"name": "activation_732", "class_name": "Activation", "config": {"name": "activation_732", "trainable": true, "dtype": "float32", "activation": "relu"}, "inbound_nodes": [[["batch_normalization_456", 0, 0, {}]]]}, {"name": "activation_735", "class_name": "Activation", "config": {"name": "activation_735", "trainable": true, "dtype": "float32", "activation": "relu"}, "inbound_nodes": [[["batch_normalization_459", 0, 0, {}]]]}, {"name": "conv2d_455", "class_name": "Conv2D", "config": {"name": "conv2d_455", "trainable": true, "dtype": "float32", "filters": 32, "kernel_size": [1, 1], "strides": [1, 1], "padding": "same", "data_format": "channels_last", "dilation_rate": [1, 1], "activation": "linear", "use_bias": false, "kernel_initializer": {"class_name": "VarianceScaling", "config": {"scale": 1.0, "mode": "fan_avg", "distribution": "uniform", "seed": null}}, "bias_initializer": {"class_name": "Zeros", "config": {}}, "kernel_regularizer": null, "bias_regularizer": null, "activity_regularizer": null, "kernel_constraint": null, "bias_constraint": null}, "inbound_nodes": [[["block35_6_ac", 0, 0, {}]]]}, {"name": "conv2d_457", "class_name": "Conv2D", "config": {"name": "conv2d_457", "trainable": true, "dtype": "float32", "filters": 32, "kernel_size": [3, 3], "strides": [1, 1], "padding": "same", "data_format": "channels_last", "dilation_rate": [1, 1], "activation": "linear", "use_bias": false, "kernel_initializer": {"class_name": "VarianceScaling", "config": {"scale": 1.0, "mode": "fan_avg", "distribution": "uniform", "seed": null}}, "bias_initializer": {"class_name": "Zeros", "config": {}}, "kernel_regularizer": null, "bias_regularizer": null, "activity_regularizer": null, "kernel_constraint": null, "bias_constraint": null}, "inbound_nodes": [[["activation_732", 0, 0, {}]]]}, {"name": "conv2d_460", "class_name": "Conv2D", "config": {"name": "conv2d_460", "trainable": true, "dtype": "float32", "filters": 64, "kernel_size": [3, 3], "strides": [1, 1], "padding": "same", "data_format": "channels_last", "dilation_rate": [1, 1], "activation": "linear", "use_bias": false, "kernel_initializer": {"class_name": "VarianceScaling", "config": {"scale": 1.0, "mode": "fan_avg", "distribution": "uniform", "seed": null}}, "bias_initializer": {"class_name": "Zeros", "config": {}}, "kernel_regularizer": null, "bias_regularizer": null, "activity_regularizer": null, "kernel_constraint": null, "bias_constraint": null}, "inbound_nodes": [[["activation_735", 0, 0, {}]]]}, {"name": "batch_normalization_455", "class_name": "BatchNormalization", "config": {"name": "batch_normalization_455", "trainable": true, "dtype": "float32", "axis": 3, "momentum": 0.99, "epsilon": 0.001, "center": true, "scale": false, "beta_initializer": {"class_name": "Zeros", "config": {}}, "gamma_initializer": {"class_name": "Ones", "config": {}}, "moving_mean_initializer": {"class_name": "Zeros", "config": {}}, "moving_variance_initializer": {"class_name": "Ones", "config": {}}, "beta_regularizer": null, "gamma_regularizer": null, "beta_constraint": null, "gamma_constraint": null}, "inbound_nodes": [[["conv2d_455", 0, 0, {}]]]}, {"name": "batch_normalization_457", "class_name": "BatchNormalization", "config": {"name": "batch_normalization_457", "trainable": true, "dtype": "float32", "axis": 3, "momentum": 0.99, "epsilon": 0.001, "center": true, "scale": false, "beta_initializer": {"class_name": "Zeros", "config": {}}, "gamma_initializer": {"class_name": "Ones", "config": {}}, "moving_mean_initializer": {"class_name": "Zeros", "config": {}}, "moving_variance_initializer": {"class_name": "Ones", "config": {}}, "beta_regularizer": null, "gamma_regularizer": null, "beta_constraint": null, "gamma_constraint": null}, "inbound_nodes": [[["conv2d_457", 0, 0, {}]]]}, {"name": "batch_normalization_460", "class_name": "BatchNormalization", "config": {"name": "batch_normalization_460", "trainable": true, "dtype": "float32", "axis": 3, "momentum": 0.99, "epsilon": 0.001, "center": true, "scale": false, "beta_initializer": {"class_name": "Zeros", "config": {}}, "gamma_initializer": {"class_name": "Ones", "config": {}}, "moving_mean_initializer": {"class_name": "Zeros", "config": {}}, "moving_variance_initializer": {"class_name": "Ones", "config": {}}, "beta_regularizer": null, "gamma_regularizer": null, "beta_constraint": null, "gamma_constraint": null}, "inbound_nodes": [[["conv2d_460", 0, 0, {}]]]}, {"name": "activation_731", "class_name": "Activation", "config": {"name": "activation_731", "trainable": true, "dtype": "float32", "activation": "relu"}, "inbound_nodes": [[["batch_normalization_455", 0, 0, {}]]]}, {"name": "activation_733", "class_name": "Activation", "config": {"name": "activation_733", "trainable": true, "dtype": "float32", "activation": "relu"}, "inbound_nodes": [[["batch_normalization_457", 0, 0, {}]]]}, {"name": "activation_736", "class_name": "Activation", "config": {"name": "activation_736", "trainable": true, "dtype": "float32", "activation": "relu"}, "inbound_nodes": [[["batch_normalization_460", 0, 0, {}]]]}, {"name": "block35_7_mixed", "class_name": "Concatenate", "config": {"name": "block35_7_mixed", "trainable": true, "dtype": "float32", "axis": 3}, "inbound_nodes": [[["activation_731", 0, 0, {}], ["activation_733", 0, 0, {}], ["activation_736", 0, 0, {}]]]}, {"name": "block35_7_conv", "class_name": "Conv2D", "config": {"name": "block35_7_conv", "trainable": true, "dtype": "float32", "filters": 320, "kernel_size": [1, 1], "strides": [1, 1], "padding": "same", "data_format": "channels_last", "dilation_rate": [1, 1], "activation": "linear", "use_bias": true, "kernel_initializer": {"class_name": "VarianceScaling", "config": {"scale": 1.0, "mode": "fan_avg", "distribution": "uniform", "seed": null}}, "bias_initializer": {"class_name": "Zeros", "config": {}}, "kernel_regularizer": null, "bias_regularizer": null, "activity_regularizer": null, "kernel_constraint": null, "bias_constraint": null}, "inbound_nodes": [[["block35_7_mixed", 0, 0, {}]]]}, {"name": "block35_7", "class_name": "Lambda", "config": {"name": "block35_7", "trainable": true, "dtype": "float32", "function": ["4wIAAAAAAAAAAgAAAAMAAABTAAAAcxQAAAB8AGQBGQB8AGQCGQB8ARQAFwBTACkDTukAAAAA6QEA\nAACpACkC2gZpbnB1dHPaBXNjYWxlcgMAAAByAwAAAPpQL3Vzci9sb2NhbC9saWIvcHl0aG9uMy42\nL2Rpc3QtcGFja2FnZXMva2VyYXNfYXBwbGljYXRpb25zL2luY2VwdGlvbl9yZXNuZXRfdjIucHna\nCDxsYW1iZGE+qAAAAPMAAAAA\n", null, null], "function_type": "lambda", "output_shape": [18, 18, 320], "output_shape_type": "raw", "arguments": {"scale": 0.17}}, "inbound_nodes": [[["block35_6_ac", 0, 0, {}], ["block35_7_conv", 0, 0, {}]]]}, {"name": "block35_7_ac", "class_name": "Activation", "config": {"name": "block35_7_ac", "trainable": true, "dtype": "float32", "activation": "relu"}, "inbound_nodes": [[["block35_7", 0, 0, {}]]]}, {"name": "conv2d_464", "class_name": "Conv2D", "config": {"name": "conv2d_464", "trainable": true, "dtype": "float32", "filters": 32, "kernel_size": [1, 1], "strides": [1, 1], "padding": "same", "data_format": "channels_last", "dilation_rate": [1, 1], "activation": "linear", "use_bias": false, "kernel_initializer": {"class_name": "VarianceScaling", "config": {"scale": 1.0, "mode": "fan_avg", "distribution": "uniform", "seed": null}}, "bias_initializer": {"class_name": "Zeros", "config": {}}, "kernel_regularizer": null, "bias_regularizer": null, "activity_regularizer": null, "kernel_constraint": null, "bias_constraint": null}, "inbound_nodes": [[["block35_7_ac", 0, 0, {}]]]}, {"name": "batch_normalization_464", "class_name": "BatchNormalization", "config": {"name": "batch_normalization_464", "trainable": true, "dtype": "float32", "axis": 3, "momentum": 0.99, "epsilon": 0.001, "center": true, "scale": false, "beta_initializer": {"class_name": "Zeros", "config": {}}, "gamma_initializer": {"class_name": "Ones", "config": {}}, "moving_mean_initializer": {"class_name": "Zeros", "config": {}}, "moving_variance_initializer": {"class_name": "Ones", "config": {}}, "beta_regularizer": null, "gamma_regularizer": null, "beta_constraint": null, "gamma_constraint": null}, "inbound_nodes": [[["conv2d_464", 0, 0, {}]]]}, {"name": "activation_740", "class_name": "Activation", "config": {"name": "activation_740", "trainable": true, "dtype": "float32", "activation": "relu"}, "inbound_nodes": [[["batch_normalization_464", 0, 0, {}]]]}, {"name": "conv2d_462", "class_name": "Conv2D", "config": {"name": "conv2d_462", "trainable": true, "dtype": "float32", "filters": 32, "kernel_size": [1, 1], "strides": [1, 1], "padding": "same", "data_format": "channels_last", "dilation_rate": [1, 1], "activation": "linear", "use_bias": false, "kernel_initializer": {"class_name": "VarianceScaling", "config": {"scale": 1.0, "mode": "fan_avg", "distribution": "uniform", "seed": null}}, "bias_initializer": {"class_name": "Zeros", "config": {}}, "kernel_regularizer": null, "bias_regularizer": null, "activity_regularizer": null, "kernel_constraint": null, "bias_constraint": null}, "inbound_nodes": [[["block35_7_ac", 0, 0, {}]]]}, {"name": "conv2d_465", "class_name": "Conv2D", "config": {"name": "conv2d_465", "trainable": true, "dtype": "float32", "filters": 48, "kernel_size": [3, 3], "strides": [1, 1], "padding": "same", "data_format": "channels_last", "dilation_rate": [1, 1], "activation": "linear", "use_bias": false, "kernel_initializer": {"class_name": "VarianceScaling", "config": {"scale": 1.0, "mode": "fan_avg", "distribution": "uniform", "seed": null}}, "bias_initializer": {"class_name": "Zeros", "config": {}}, "kernel_regularizer": null, "bias_regularizer": null, "activity_regularizer": null, "kernel_constraint": null, "bias_constraint": null}, "inbound_nodes": [[["activation_740", 0, 0, {}]]]}, {"name": "batch_normalization_462", "class_name": "BatchNormalization", "config": {"name": "batch_normalization_462", "trainable": true, "dtype": "float32", "axis": 3, "momentum": 0.99, "epsilon": 0.001, "center": true, "scale": false, "beta_initializer": {"class_name": "Zeros", "config": {}}, "gamma_initializer": {"class_name": "Ones", "config": {}}, "moving_mean_initializer": {"class_name": "Zeros", "config": {}}, "moving_variance_initializer": {"class_name": "Ones", "config": {}}, "beta_regularizer": null, "gamma_regularizer": null, "beta_constraint": null, "gamma_constraint": null}, "inbound_nodes": [[["conv2d_462", 0, 0, {}]]]}, {"name": "batch_normalization_465", "class_name": "BatchNormalization", "config": {"name": "batch_normalization_465", "trainable": true, "dtype": "float32", "axis": 3, "momentum": 0.99, "epsilon": 0.001, "center": true, "scale": false, "beta_initializer": {"class_name": "Zeros", "config": {}}, "gamma_initializer": {"class_name": "Ones", "config": {}}, "moving_mean_initializer": {"class_name": "Zeros", "config": {}}, "moving_variance_initializer": {"class_name": "Ones", "config": {}}, "beta_regularizer": null, "gamma_regularizer": null, "beta_constraint": null, "gamma_constraint": null}, "inbound_nodes": [[["conv2d_465", 0, 0, {}]]]}, {"name": "activation_738", "class_name": "Activation", "config": {"name": "activation_738", "trainable": true, "dtype": "float32", "activation": "relu"}, "inbound_nodes": [[["batch_normalization_462", 0, 0, {}]]]}, {"name": "activation_741", "class_name": "Activation", "config": {"name": "activation_741", "trainable": true, "dtype": "float32", "activation": "relu"}, "inbound_nodes": [[["batch_normalization_465", 0, 0, {}]]]}, {"name": "conv2d_461", "class_name": "Conv2D", "config": {"name": "conv2d_461", "trainable": true, "dtype": "float32", "filters": 32, "kernel_size": [1, 1], "strides": [1, 1], "padding": "same", "data_format": "channels_last", "dilation_rate": [1, 1], "activation": "linear", "use_bias": false, "kernel_initializer": {"class_name": "VarianceScaling", "config": {"scale": 1.0, "mode": "fan_avg", "distribution": "uniform", "seed": null}}, "bias_initializer": {"class_name": "Zeros", "config": {}}, "kernel_regularizer": null, "bias_regularizer": null, "activity_regularizer": null, "kernel_constraint": null, "bias_constraint": null}, "inbound_nodes": [[["block35_7_ac", 0, 0, {}]]]}, {"name": "conv2d_463", "class_name": "Conv2D", "config": {"name": "conv2d_463", "trainable": true, "dtype": "float32", "filters": 32, "kernel_size": [3, 3], "strides": [1, 1], "padding": "same", "data_format": "channels_last", "dilation_rate": [1, 1], "activation": "linear", "use_bias": false, "kernel_initializer": {"class_name": "VarianceScaling", "config": {"scale": 1.0, "mode": "fan_avg", "distribution": "uniform", "seed": null}}, "bias_initializer": {"class_name": "Zeros", "config": {}}, "kernel_regularizer": null, "bias_regularizer": null, "activity_regularizer": null, "kernel_constraint": null, "bias_constraint": null}, "inbound_nodes": [[["activation_738", 0, 0, {}]]]}, {"name": "conv2d_466", "class_name": "Conv2D", "config": {"name": "conv2d_466", "trainable": true, "dtype": "float32", "filters": 64, "kernel_size": [3, 3], "strides": [1, 1], "padding": "same", "data_format": "channels_last", "dilation_rate": [1, 1], "activation": "linear", "use_bias": false, "kernel_initializer": {"class_name": "VarianceScaling", "config": {"scale": 1.0, "mode": "fan_avg", "distribution": "uniform", "seed": null}}, "bias_initializer": {"class_name": "Zeros", "config": {}}, "kernel_regularizer": null, "bias_regularizer": null, "activity_regularizer": null, "kernel_constraint": null, "bias_constraint": null}, "inbound_nodes": [[["activation_741", 0, 0, {}]]]}, {"name": "batch_normalization_461", "class_name": "BatchNormalization", "config": {"name": "batch_normalization_461", "trainable": true, "dtype": "float32", "axis": 3, "momentum": 0.99, "epsilon": 0.001, "center": true, "scale": false, "beta_initializer": {"class_name": "Zeros", "config": {}}, "gamma_initializer": {"class_name": "Ones", "config": {}}, "moving_mean_initializer": {"class_name": "Zeros", "config": {}}, "moving_variance_initializer": {"class_name": "Ones", "config": {}}, "beta_regularizer": null, "gamma_regularizer": null, "beta_constraint": null, "gamma_constraint": null}, "inbound_nodes": [[["conv2d_461", 0, 0, {}]]]}, {"name": "batch_normalization_463", "class_name": "BatchNormalization", "config": {"name": "batch_normalization_463", "trainable": true, "dtype": "float32", "axis": 3, "momentum": 0.99, "epsilon": 0.001, "center": true, "scale": false, "beta_initializer": {"class_name": "Zeros", "config": {}}, "gamma_initializer": {"class_name": "Ones", "config": {}}, "moving_mean_initializer": {"class_name": "Zeros", "config": {}}, "moving_variance_initializer": {"class_name": "Ones", "config": {}}, "beta_regularizer": null, "gamma_regularizer": null, "beta_constraint": null, "gamma_constraint": null}, "inbound_nodes": [[["conv2d_463", 0, 0, {}]]]}, {"name": "batch_normalization_466", "class_name": "BatchNormalization", "config": {"name": "batch_normalization_466", "trainable": true, "dtype": "float32", "axis": 3, "momentum": 0.99, "epsilon": 0.001, "center": true, "scale": false, "beta_initializer": {"class_name": "Zeros", "config": {}}, "gamma_initializer": {"class_name": "Ones", "config": {}}, "moving_mean_initializer": {"class_name": "Zeros", "config": {}}, "moving_variance_initializer": {"class_name": "Ones", "config": {}}, "beta_regularizer": null, "gamma_regularizer": null, "beta_constraint": null, "gamma_constraint": null}, "inbound_nodes": [[["conv2d_466", 0, 0, {}]]]}, {"name": "activation_737", "class_name": "Activation", "config": {"name": "activation_737", "trainable": true, "dtype": "float32", "activation": "relu"}, "inbound_nodes": [[["batch_normalization_461", 0, 0, {}]]]}, {"name": "activation_739", "class_name": "Activation", "config": {"name": "activation_739", "trainable": true, "dtype": "float32", "activation": "relu"}, "inbound_nodes": [[["batch_normalization_463", 0, 0, {}]]]}, {"name": "activation_742", "class_name": "Activation", "config": {"name": "activation_742", "trainable": true, "dtype": "float32", "activation": "relu"}, "inbound_nodes": [[["batch_normalization_466", 0, 0, {}]]]}, {"name": "block35_8_mixed", "class_name": "Concatenate", "config": {"name": "block35_8_mixed", "trainable": true, "dtype": "float32", "axis": 3}, "inbound_nodes": [[["activation_737", 0, 0, {}], ["activation_739", 0, 0, {}], ["activation_742", 0, 0, {}]]]}, {"name": "block35_8_conv", "class_name": "Conv2D", "config": {"name": "block35_8_conv", "trainable": true, "dtype": "float32", "filters": 320, "kernel_size": [1, 1], "strides": [1, 1], "padding": "same", "data_format": "channels_last", "dilation_rate": [1, 1], "activation": "linear", "use_bias": true, "kernel_initializer": {"class_name": "VarianceScaling", "config": {"scale": 1.0, "mode": "fan_avg", "distribution": "uniform", "seed": null}}, "bias_initializer": {"class_name": "Zeros", "config": {}}, "kernel_regularizer": null, "bias_regularizer": null, "activity_regularizer": null, "kernel_constraint": null, "bias_constraint": null}, "inbound_nodes": [[["block35_8_mixed", 0, 0, {}]]]}, {"name": "block35_8", "class_name": "Lambda", "config": {"name": "block35_8", "trainable": true, "dtype": "float32", "function": ["4wIAAAAAAAAAAgAAAAMAAABTAAAAcxQAAAB8AGQBGQB8AGQCGQB8ARQAFwBTACkDTukAAAAA6QEA\nAACpACkC2gZpbnB1dHPaBXNjYWxlcgMAAAByAwAAAPpQL3Vzci9sb2NhbC9saWIvcHl0aG9uMy42\nL2Rpc3QtcGFja2FnZXMva2VyYXNfYXBwbGljYXRpb25zL2luY2VwdGlvbl9yZXNuZXRfdjIucHna\nCDxsYW1iZGE+qAAAAPMAAAAA\n", null, null], "function_type": "lambda", "output_shape": [18, 18, 320], "output_shape_type": "raw", "arguments": {"scale": 0.17}}, "inbound_nodes": [[["block35_7_ac", 0, 0, {}], ["block35_8_conv", 0, 0, {}]]]}, {"name": "block35_8_ac", "class_name": "Activation", "config": {"name": "block35_8_ac", "trainable": true, "dtype": "float32", "activation": "relu"}, "inbound_nodes": [[["block35_8", 0, 0, {}]]]}, {"name": "conv2d_470", "class_name": "Conv2D", "config": {"name": "conv2d_470", "trainable": true, "dtype": "float32", "filters": 32, "kernel_size": [1, 1], "strides": [1, 1], "padding": "same", "data_format": "channels_last", "dilation_rate": [1, 1], "activation": "linear", "use_bias": false, "kernel_initializer": {"class_name": "VarianceScaling", "config": {"scale": 1.0, "mode": "fan_avg", "distribution": "uniform", "seed": null}}, "bias_initializer": {"class_name": "Zeros", "config": {}}, "kernel_regularizer": null, "bias_regularizer": null, "activity_regularizer": null, "kernel_constraint": null, "bias_constraint": null}, "inbound_nodes": [[["block35_8_ac", 0, 0, {}]]]}, {"name": "batch_normalization_470", "class_name": "BatchNormalization", "config": {"name": "batch_normalization_470", "trainable": true, "dtype": "float32", "axis": 3, "momentum": 0.99, "epsilon": 0.001, "center": true, "scale": false, "beta_initializer": {"class_name": "Zeros", "config": {}}, "gamma_initializer": {"class_name": "Ones", "config": {}}, "moving_mean_initializer": {"class_name": "Zeros", "config": {}}, "moving_variance_initializer": {"class_name": "Ones", "config": {}}, "beta_regularizer": null, "gamma_regularizer": null, "beta_constraint": null, "gamma_constraint": null}, "inbound_nodes": [[["conv2d_470", 0, 0, {}]]]}, {"name": "activation_746", "class_name": "Activation", "config": {"name": "activation_746", "trainable": true, "dtype": "float32", "activation": "relu"}, "inbound_nodes": [[["batch_normalization_470", 0, 0, {}]]]}, {"name": "conv2d_468", "class_name": "Conv2D", "config": {"name": "conv2d_468", "trainable": true, "dtype": "float32", "filters": 32, "kernel_size": [1, 1], "strides": [1, 1], "padding": "same", "data_format": "channels_last", "dilation_rate": [1, 1], "activation": "linear", "use_bias": false, "kernel_initializer": {"class_name": "VarianceScaling", "config": {"scale": 1.0, "mode": "fan_avg", "distribution": "uniform", "seed": null}}, "bias_initializer": {"class_name": "Zeros", "config": {}}, "kernel_regularizer": null, "bias_regularizer": null, "activity_regularizer": null, "kernel_constraint": null, "bias_constraint": null}, "inbound_nodes": [[["block35_8_ac", 0, 0, {}]]]}, {"name": "conv2d_471", "class_name": "Conv2D", "config": {"name": "conv2d_471", "trainable": true, "dtype": "float32", "filters": 48, "kernel_size": [3, 3], "strides": [1, 1], "padding": "same", "data_format": "channels_last", "dilation_rate": [1, 1], "activation": "linear", "use_bias": false, "kernel_initializer": {"class_name": "VarianceScaling", "config": {"scale": 1.0, "mode": "fan_avg", "distribution": "uniform", "seed": null}}, "bias_initializer": {"class_name": "Zeros", "config": {}}, "kernel_regularizer": null, "bias_regularizer": null, "activity_regularizer": null, "kernel_constraint": null, "bias_constraint": null}, "inbound_nodes": [[["activation_746", 0, 0, {}]]]}, {"name": "batch_normalization_468", "class_name": "BatchNormalization", "config": {"name": "batch_normalization_468", "trainable": true, "dtype": "float32", "axis": 3, "momentum": 0.99, "epsilon": 0.001, "center": true, "scale": false, "beta_initializer": {"class_name": "Zeros", "config": {}}, "gamma_initializer": {"class_name": "Ones", "config": {}}, "moving_mean_initializer": {"class_name": "Zeros", "config": {}}, "moving_variance_initializer": {"class_name": "Ones", "config": {}}, "beta_regularizer": null, "gamma_regularizer": null, "beta_constraint": null, "gamma_constraint": null}, "inbound_nodes": [[["conv2d_468", 0, 0, {}]]]}, {"name": "batch_normalization_471", "class_name": "BatchNormalization", "config": {"name": "batch_normalization_471", "trainable": true, "dtype": "float32", "axis": 3, "momentum": 0.99, "epsilon": 0.001, "center": true, "scale": false, "beta_initializer": {"class_name": "Zeros", "config": {}}, "gamma_initializer": {"class_name": "Ones", "config": {}}, "moving_mean_initializer": {"class_name": "Zeros", "config": {}}, "moving_variance_initializer": {"class_name": "Ones", "config": {}}, "beta_regularizer": null, "gamma_regularizer": null, "beta_constraint": null, "gamma_constraint": null}, "inbound_nodes": [[["conv2d_471", 0, 0, {}]]]}, {"name": "activation_744", "class_name": "Activation", "config": {"name": "activation_744", "trainable": true, "dtype": "float32", "activation": "relu"}, "inbound_nodes": [[["batch_normalization_468", 0, 0, {}]]]}, {"name": "activation_747", "class_name": "Activation", "config": {"name": "activation_747", "trainable": true, "dtype": "float32", "activation": "relu"}, "inbound_nodes": [[["batch_normalization_471", 0, 0, {}]]]}, {"name": "conv2d_467", "class_name": "Conv2D", "config": {"name": "conv2d_467", "trainable": true, "dtype": "float32", "filters": 32, "kernel_size": [1, 1], "strides": [1, 1], "padding": "same", "data_format": "channels_last", "dilation_rate": [1, 1], "activation": "linear", "use_bias": false, "kernel_initializer": {"class_name": "VarianceScaling", "config": {"scale": 1.0, "mode": "fan_avg", "distribution": "uniform", "seed": null}}, "bias_initializer": {"class_name": "Zeros", "config": {}}, "kernel_regularizer": null, "bias_regularizer": null, "activity_regularizer": null, "kernel_constraint": null, "bias_constraint": null}, "inbound_nodes": [[["block35_8_ac", 0, 0, {}]]]}, {"name": "conv2d_469", "class_name": "Conv2D", "config": {"name": "conv2d_469", "trainable": true, "dtype": "float32", "filters": 32, "kernel_size": [3, 3], "strides": [1, 1], "padding": "same", "data_format": "channels_last", "dilation_rate": [1, 1], "activation": "linear", "use_bias": false, "kernel_initializer": {"class_name": "VarianceScaling", "config": {"scale": 1.0, "mode": "fan_avg", "distribution": "uniform", "seed": null}}, "bias_initializer": {"class_name": "Zeros", "config": {}}, "kernel_regularizer": null, "bias_regularizer": null, "activity_regularizer": null, "kernel_constraint": null, "bias_constraint": null}, "inbound_nodes": [[["activation_744", 0, 0, {}]]]}, {"name": "conv2d_472", "class_name": "Conv2D", "config": {"name": "conv2d_472", "trainable": true, "dtype": "float32", "filters": 64, "kernel_size": [3, 3], "strides": [1, 1], "padding": "same", "data_format": "channels_last", "dilation_rate": [1, 1], "activation": "linear", "use_bias": false, "kernel_initializer": {"class_name": "VarianceScaling", "config": {"scale": 1.0, "mode": "fan_avg", "distribution": "uniform", "seed": null}}, "bias_initializer": {"class_name": "Zeros", "config": {}}, "kernel_regularizer": null, "bias_regularizer": null, "activity_regularizer": null, "kernel_constraint": null, "bias_constraint": null}, "inbound_nodes": [[["activation_747", 0, 0, {}]]]}, {"name": "batch_normalization_467", "class_name": "BatchNormalization", "config": {"name": "batch_normalization_467", "trainable": true, "dtype": "float32", "axis": 3, "momentum": 0.99, "epsilon": 0.001, "center": true, "scale": false, "beta_initializer": {"class_name": "Zeros", "config": {}}, "gamma_initializer": {"class_name": "Ones", "config": {}}, "moving_mean_initializer": {"class_name": "Zeros", "config": {}}, "moving_variance_initializer": {"class_name": "Ones", "config": {}}, "beta_regularizer": null, "gamma_regularizer": null, "beta_constraint": null, "gamma_constraint": null}, "inbound_nodes": [[["conv2d_467", 0, 0, {}]]]}, {"name": "batch_normalization_469", "class_name": "BatchNormalization", "config": {"name": "batch_normalization_469", "trainable": true, "dtype": "float32", "axis": 3, "momentum": 0.99, "epsilon": 0.001, "center": true, "scale": false, "beta_initializer": {"class_name": "Zeros", "config": {}}, "gamma_initializer": {"class_name": "Ones", "config": {}}, "moving_mean_initializer": {"class_name": "Zeros", "config": {}}, "moving_variance_initializer": {"class_name": "Ones", "config": {}}, "beta_regularizer": null, "gamma_regularizer": null, "beta_constraint": null, "gamma_constraint": null}, "inbound_nodes": [[["conv2d_469", 0, 0, {}]]]}, {"name": "batch_normalization_472", "class_name": "BatchNormalization", "config": {"name": "batch_normalization_472", "trainable": true, "dtype": "float32", "axis": 3, "momentum": 0.99, "epsilon": 0.001, "center": true, "scale": false, "beta_initializer": {"class_name": "Zeros", "config": {}}, "gamma_initializer": {"class_name": "Ones", "config": {}}, "moving_mean_initializer": {"class_name": "Zeros", "config": {}}, "moving_variance_initializer": {"class_name": "Ones", "config": {}}, "beta_regularizer": null, "gamma_regularizer": null, "beta_constraint": null, "gamma_constraint": null}, "inbound_nodes": [[["conv2d_472", 0, 0, {}]]]}, {"name": "activation_743", "class_name": "Activation", "config": {"name": "activation_743", "trainable": true, "dtype": "float32", "activation": "relu"}, "inbound_nodes": [[["batch_normalization_467", 0, 0, {}]]]}, {"name": "activation_745", "class_name": "Activation", "config": {"name": "activation_745", "trainable": true, "dtype": "float32", "activation": "relu"}, "inbound_nodes": [[["batch_normalization_469", 0, 0, {}]]]}, {"name": "activation_748", "class_name": "Activation", "config": {"name": "activation_748", "trainable": true, "dtype": "float32", "activation": "relu"}, "inbound_nodes": [[["batch_normalization_472", 0, 0, {}]]]}, {"name": "block35_9_mixed", "class_name": "Concatenate", "config": {"name": "block35_9_mixed", "trainable": true, "dtype": "float32", "axis": 3}, "inbound_nodes": [[["activation_743", 0, 0, {}], ["activation_745", 0, 0, {}], ["activation_748", 0, 0, {}]]]}, {"name": "block35_9_conv", "class_name": "Conv2D", "config": {"name": "block35_9_conv", "trainable": true, "dtype": "float32", "filters": 320, "kernel_size": [1, 1], "strides": [1, 1], "padding": "same", "data_format": "channels_last", "dilation_rate": [1, 1], "activation": "linear", "use_bias": true, "kernel_initializer": {"class_name": "VarianceScaling", "config": {"scale": 1.0, "mode": "fan_avg", "distribution": "uniform", "seed": null}}, "bias_initializer": {"class_name": "Zeros", "config": {}}, "kernel_regularizer": null, "bias_regularizer": null, "activity_regularizer": null, "kernel_constraint": null, "bias_constraint": null}, "inbound_nodes": [[["block35_9_mixed", 0, 0, {}]]]}, {"name": "block35_9", "class_name": "Lambda", "config": {"name": "block35_9", "trainable": true, "dtype": "float32", "function": ["4wIAAAAAAAAAAgAAAAMAAABTAAAAcxQAAAB8AGQBGQB8AGQCGQB8ARQAFwBTACkDTukAAAAA6QEA\nAACpACkC2gZpbnB1dHPaBXNjYWxlcgMAAAByAwAAAPpQL3Vzci9sb2NhbC9saWIvcHl0aG9uMy42\nL2Rpc3QtcGFja2FnZXMva2VyYXNfYXBwbGljYXRpb25zL2luY2VwdGlvbl9yZXNuZXRfdjIucHna\nCDxsYW1iZGE+qAAAAPMAAAAA\n", null, null], "function_type": "lambda", "output_shape": [18, 18, 320], "output_shape_type": "raw", "arguments": {"scale": 0.17}}, "inbound_nodes": [[["block35_8_ac", 0, 0, {}], ["block35_9_conv", 0, 0, {}]]]}, {"name": "block35_9_ac", "class_name": "Activation", "config": {"name": "block35_9_ac", "trainable": true, "dtype": "float32", "activation": "relu"}, "inbound_nodes": [[["block35_9", 0, 0, {}]]]}, {"name": "conv2d_476", "class_name": "Conv2D", "config": {"name": "conv2d_476", "trainable": true, "dtype": "float32", "filters": 32, "kernel_size": [1, 1], "strides": [1, 1], "padding": "same", "data_format": "channels_last", "dilation_rate": [1, 1], "activation": "linear", "use_bias": false, "kernel_initializer": {"class_name": "VarianceScaling", "config": {"scale": 1.0, "mode": "fan_avg", "distribution": "uniform", "seed": null}}, "bias_initializer": {"class_name": "Zeros", "config": {}}, "kernel_regularizer": null, "bias_regularizer": null, "activity_regularizer": null, "kernel_constraint": null, "bias_constraint": null}, "inbound_nodes": [[["block35_9_ac", 0, 0, {}]]]}, {"name": "batch_normalization_476", "class_name": "BatchNormalization", "config": {"name": "batch_normalization_476", "trainable": true, "dtype": "float32", "axis": 3, "momentum": 0.99, "epsilon": 0.001, "center": true, "scale": false, "beta_initializer": {"class_name": "Zeros", "config": {}}, "gamma_initializer": {"class_name": "Ones", "config": {}}, "moving_mean_initializer": {"class_name": "Zeros", "config": {}}, "moving_variance_initializer": {"class_name": "Ones", "config": {}}, "beta_regularizer": null, "gamma_regularizer": null, "beta_constraint": null, "gamma_constraint": null}, "inbound_nodes": [[["conv2d_476", 0, 0, {}]]]}, {"name": "activation_752", "class_name": "Activation", "config": {"name": "activation_752", "trainable": true, "dtype": "float32", "activation": "relu"}, "inbound_nodes": [[["batch_normalization_476", 0, 0, {}]]]}, {"name": "conv2d_474", "class_name": "Conv2D", "config": {"name": "conv2d_474", "trainable": true, "dtype": "float32", "filters": 32, "kernel_size": [1, 1], "strides": [1, 1], "padding": "same", "data_format": "channels_last", "dilation_rate": [1, 1], "activation": "linear", "use_bias": false, "kernel_initializer": {"class_name": "VarianceScaling", "config": {"scale": 1.0, "mode": "fan_avg", "distribution": "uniform", "seed": null}}, "bias_initializer": {"class_name": "Zeros", "config": {}}, "kernel_regularizer": null, "bias_regularizer": null, "activity_regularizer": null, "kernel_constraint": null, "bias_constraint": null}, "inbound_nodes": [[["block35_9_ac", 0, 0, {}]]]}, {"name": "conv2d_477", "class_name": "Conv2D", "config": {"name": "conv2d_477", "trainable": true, "dtype": "float32", "filters": 48, "kernel_size": [3, 3], "strides": [1, 1], "padding": "same", "data_format": "channels_last", "dilation_rate": [1, 1], "activation": "linear", "use_bias": false, "kernel_initializer": {"class_name": "VarianceScaling", "config": {"scale": 1.0, "mode": "fan_avg", "distribution": "uniform", "seed": null}}, "bias_initializer": {"class_name": "Zeros", "config": {}}, "kernel_regularizer": null, "bias_regularizer": null, "activity_regularizer": null, "kernel_constraint": null, "bias_constraint": null}, "inbound_nodes": [[["activation_752", 0, 0, {}]]]}, {"name": "batch_normalization_474", "class_name": "BatchNormalization", "config": {"name": "batch_normalization_474", "trainable": true, "dtype": "float32", "axis": 3, "momentum": 0.99, "epsilon": 0.001, "center": true, "scale": false, "beta_initializer": {"class_name": "Zeros", "config": {}}, "gamma_initializer": {"class_name": "Ones", "config": {}}, "moving_mean_initializer": {"class_name": "Zeros", "config": {}}, "moving_variance_initializer": {"class_name": "Ones", "config": {}}, "beta_regularizer": null, "gamma_regularizer": null, "beta_constraint": null, "gamma_constraint": null}, "inbound_nodes": [[["conv2d_474", 0, 0, {}]]]}, {"name": "batch_normalization_477", "class_name": "BatchNormalization", "config": {"name": "batch_normalization_477", "trainable": true, "dtype": "float32", "axis": 3, "momentum": 0.99, "epsilon": 0.001, "center": true, "scale": false, "beta_initializer": {"class_name": "Zeros", "config": {}}, "gamma_initializer": {"class_name": "Ones", "config": {}}, "moving_mean_initializer": {"class_name": "Zeros", "config": {}}, "moving_variance_initializer": {"class_name": "Ones", "config": {}}, "beta_regularizer": null, "gamma_regularizer": null, "beta_constraint": null, "gamma_constraint": null}, "inbound_nodes": [[["conv2d_477", 0, 0, {}]]]}, {"name": "activation_750", "class_name": "Activation", "config": {"name": "activation_750", "trainable": true, "dtype": "float32", "activation": "relu"}, "inbound_nodes": [[["batch_normalization_474", 0, 0, {}]]]}, {"name": "activation_753", "class_name": "Activation", "config": {"name": "activation_753", "trainable": true, "dtype": "float32", "activation": "relu"}, "inbound_nodes": [[["batch_normalization_477", 0, 0, {}]]]}, {"name": "conv2d_473", "class_name": "Conv2D", "config": {"name": "conv2d_473", "trainable": true, "dtype": "float32", "filters": 32, "kernel_size": [1, 1], "strides": [1, 1], "padding": "same", "data_format": "channels_last", "dilation_rate": [1, 1], "activation": "linear", "use_bias": false, "kernel_initializer": {"class_name": "VarianceScaling", "config": {"scale": 1.0, "mode": "fan_avg", "distribution": "uniform", "seed": null}}, "bias_initializer": {"class_name": "Zeros", "config": {}}, "kernel_regularizer": null, "bias_regularizer": null, "activity_regularizer": null, "kernel_constraint": null, "bias_constraint": null}, "inbound_nodes": [[["block35_9_ac", 0, 0, {}]]]}, {"name": "conv2d_475", "class_name": "Conv2D", "config": {"name": "conv2d_475", "trainable": true, "dtype": "float32", "filters": 32, "kernel_size": [3, 3], "strides": [1, 1], "padding": "same", "data_format": "channels_last", "dilation_rate": [1, 1], "activation": "linear", "use_bias": false, "kernel_initializer": {"class_name": "VarianceScaling", "config": {"scale": 1.0, "mode": "fan_avg", "distribution": "uniform", "seed": null}}, "bias_initializer": {"class_name": "Zeros", "config": {}}, "kernel_regularizer": null, "bias_regularizer": null, "activity_regularizer": null, "kernel_constraint": null, "bias_constraint": null}, "inbound_nodes": [[["activation_750", 0, 0, {}]]]}, {"name": "conv2d_478", "class_name": "Conv2D", "config": {"name": "conv2d_478", "trainable": true, "dtype": "float32", "filters": 64, "kernel_size": [3, 3], "strides": [1, 1], "padding": "same", "data_format": "channels_last", "dilation_rate": [1, 1], "activation": "linear", "use_bias": false, "kernel_initializer": {"class_name": "VarianceScaling", "config": {"scale": 1.0, "mode": "fan_avg", "distribution": "uniform", "seed": null}}, "bias_initializer": {"class_name": "Zeros", "config": {}}, "kernel_regularizer": null, "bias_regularizer": null, "activity_regularizer": null, "kernel_constraint": null, "bias_constraint": null}, "inbound_nodes": [[["activation_753", 0, 0, {}]]]}, {"name": "batch_normalization_473", "class_name": "BatchNormalization", "config": {"name": "batch_normalization_473", "trainable": true, "dtype": "float32", "axis": 3, "momentum": 0.99, "epsilon": 0.001, "center": true, "scale": false, "beta_initializer": {"class_name": "Zeros", "config": {}}, "gamma_initializer": {"class_name": "Ones", "config": {}}, "moving_mean_initializer": {"class_name": "Zeros", "config": {}}, "moving_variance_initializer": {"class_name": "Ones", "config": {}}, "beta_regularizer": null, "gamma_regularizer": null, "beta_constraint": null, "gamma_constraint": null}, "inbound_nodes": [[["conv2d_473", 0, 0, {}]]]}, {"name": "batch_normalization_475", "class_name": "BatchNormalization", "config": {"name": "batch_normalization_475", "trainable": true, "dtype": "float32", "axis": 3, "momentum": 0.99, "epsilon": 0.001, "center": true, "scale": false, "beta_initializer": {"class_name": "Zeros", "config": {}}, "gamma_initializer": {"class_name": "Ones", "config": {}}, "moving_mean_initializer": {"class_name": "Zeros", "config": {}}, "moving_variance_initializer": {"class_name": "Ones", "config": {}}, "beta_regularizer": null, "gamma_regularizer": null, "beta_constraint": null, "gamma_constraint": null}, "inbound_nodes": [[["conv2d_475", 0, 0, {}]]]}, {"name": "batch_normalization_478", "class_name": "BatchNormalization", "config": {"name": "batch_normalization_478", "trainable": true, "dtype": "float32", "axis": 3, "momentum": 0.99, "epsilon": 0.001, "center": true, "scale": false, "beta_initializer": {"class_name": "Zeros", "config": {}}, "gamma_initializer": {"class_name": "Ones", "config": {}}, "moving_mean_initializer": {"class_name": "Zeros", "config": {}}, "moving_variance_initializer": {"class_name": "Ones", "config": {}}, "beta_regularizer": null, "gamma_regularizer": null, "beta_constraint": null, "gamma_constraint": null}, "inbound_nodes": [[["conv2d_478", 0, 0, {}]]]}, {"name": "activation_749", "class_name": "Activation", "config": {"name": "activation_749", "trainable": true, "dtype": "float32", "activation": "relu"}, "inbound_nodes": [[["batch_normalization_473", 0, 0, {}]]]}, {"name": "activation_751", "class_name": "Activation", "config": {"name": "activation_751", "trainable": true, "dtype": "float32", "activation": "relu"}, "inbound_nodes": [[["batch_normalization_475", 0, 0, {}]]]}, {"name": "activation_754", "class_name": "Activation", "config": {"name": "activation_754", "trainable": true, "dtype": "float32", "activation": "relu"}, "inbound_nodes": [[["batch_normalization_478", 0, 0, {}]]]}, {"name": "block35_10_mixed", "class_name": "Concatenate", "config": {"name": "block35_10_mixed", "trainable": true, "dtype": "float32", "axis": 3}, "inbound_nodes": [[["activation_749", 0, 0, {}], ["activation_751", 0, 0, {}], ["activation_754", 0, 0, {}]]]}, {"name": "block35_10_conv", "class_name": "Conv2D", "config": {"name": "block35_10_conv", "trainable": true, "dtype": "float32", "filters": 320, "kernel_size": [1, 1], "strides": [1, 1], "padding": "same", "data_format": "channels_last", "dilation_rate": [1, 1], "activation": "linear", "use_bias": true, "kernel_initializer": {"class_name": "VarianceScaling", "config": {"scale": 1.0, "mode": "fan_avg", "distribution": "uniform", "seed": null}}, "bias_initializer": {"class_name": "Zeros", "config": {}}, "kernel_regularizer": null, "bias_regularizer": null, "activity_regularizer": null, "kernel_constraint": null, "bias_constraint": null}, "inbound_nodes": [[["block35_10_mixed", 0, 0, {}]]]}, {"name": "block35_10", "class_name": "Lambda", "config": {"name": "block35_10", "trainable": true, "dtype": "float32", "function": ["4wIAAAAAAAAAAgAAAAMAAABTAAAAcxQAAAB8AGQBGQB8AGQCGQB8ARQAFwBTACkDTukAAAAA6QEA\nAACpACkC2gZpbnB1dHPaBXNjYWxlcgMAAAByAwAAAPpQL3Vzci9sb2NhbC9saWIvcHl0aG9uMy42\nL2Rpc3QtcGFja2FnZXMva2VyYXNfYXBwbGljYXRpb25zL2luY2VwdGlvbl9yZXNuZXRfdjIucHna\nCDxsYW1iZGE+qAAAAPMAAAAA\n", null, null], "function_type": "lambda", "output_shape": [18, 18, 320], "output_shape_type": "raw", "arguments": {"scale": 0.17}}, "inbound_nodes": [[["block35_9_ac", 0, 0, {}], ["block35_10_conv", 0, 0, {}]]]}, {"name": "block35_10_ac", "class_name": "Activation", "config": {"name": "block35_10_ac", "trainable": true, "dtype": "float32", "activation": "relu"}, "inbound_nodes": [[["block35_10", 0, 0, {}]]]}, {"name": "conv2d_480", "class_name": "Conv2D", "config": {"name": "conv2d_480", "trainable": true, "dtype": "float32", "filters": 256, "kernel_size": [1, 1], "strides": [1, 1], "padding": "same", "data_format": "channels_last", "dilation_rate": [1, 1], "activation": "linear", "use_bias": false, "kernel_initializer": {"class_name": "VarianceScaling", "config": {"scale": 1.0, "mode": "fan_avg", "distribution": "uniform", "seed": null}}, "bias_initializer": {"class_name": "Zeros", "config": {}}, "kernel_regularizer": null, "bias_regularizer": null, "activity_regularizer": null, "kernel_constraint": null, "bias_constraint": null}, "inbound_nodes": [[["block35_10_ac", 0, 0, {}]]]}, {"name": "batch_normalization_480", "class_name": "BatchNormalization", "config": {"name": "batch_normalization_480", "trainable": true, "dtype": "float32", "axis": 3, "momentum": 0.99, "epsilon": 0.001, "center": true, "scale": false, "beta_initializer": {"class_name": "Zeros", "config": {}}, "gamma_initializer": {"class_name": "Ones", "config": {}}, "moving_mean_initializer": {"class_name": "Zeros", "config": {}}, "moving_variance_initializer": {"class_name": "Ones", "config": {}}, "beta_regularizer": null, "gamma_regularizer": null, "beta_constraint": null, "gamma_constraint": null}, "inbound_nodes": [[["conv2d_480", 0, 0, {}]]]}, {"name": "activation_756", "class_name": "Activation", "config": {"name": "activation_756", "trainable": true, "dtype": "float32", "activation": "relu"}, "inbound_nodes": [[["batch_normalization_480", 0, 0, {}]]]}, {"name": "conv2d_481", "class_name": "Conv2D", "config": {"name": "conv2d_481", "trainable": true, "dtype": "float32", "filters": 256, "kernel_size": [3, 3], "strides": [1, 1], "padding": "same", "data_format": "channels_last", "dilation_rate": [1, 1], "activation": "linear", "use_bias": false, "kernel_initializer": {"class_name": "VarianceScaling", "config": {"scale": 1.0, "mode": "fan_avg", "distribution": "uniform", "seed": null}}, "bias_initializer": {"class_name": "Zeros", "config": {}}, "kernel_regularizer": null, "bias_regularizer": null, "activity_regularizer": null, "kernel_constraint": null, "bias_constraint": null}, "inbound_nodes": [[["activation_756", 0, 0, {}]]]}, {"name": "batch_normalization_481", "class_name": "BatchNormalization", "config": {"name": "batch_normalization_481", "trainable": true, "dtype": "float32", "axis": 3, "momentum": 0.99, "epsilon": 0.001, "center": true, "scale": false, "beta_initializer": {"class_name": "Zeros", "config": {}}, "gamma_initializer": {"class_name": "Ones", "config": {}}, "moving_mean_initializer": {"class_name": "Zeros", "config": {}}, "moving_variance_initializer": {"class_name": "Ones", "config": {}}, "beta_regularizer": null, "gamma_regularizer": null, "beta_constraint": null, "gamma_constraint": null}, "inbound_nodes": [[["conv2d_481", 0, 0, {}]]]}, {"name": "activation_757", "class_name": "Activation", "config": {"name": "activation_757", "trainable": true, "dtype": "float32", "activation": "relu"}, "inbound_nodes": [[["batch_normalization_481", 0, 0, {}]]]}, {"name": "conv2d_479", "class_name": "Conv2D", "config": {"name": "conv2d_479", "trainable": true, "dtype": "float32", "filters": 384, "kernel_size": [3, 3], "strides": [2, 2], "padding": "valid", "data_format": "channels_last", "dilation_rate": [1, 1], "activation": "linear", "use_bias": false, "kernel_initializer": {"class_name": "VarianceScaling", "config": {"scale": 1.0, "mode": "fan_avg", "distribution": "uniform", "seed": null}}, "bias_initializer": {"class_name": "Zeros", "config": {}}, "kernel_regularizer": null, "bias_regularizer": null, "activity_regularizer": null, "kernel_constraint": null, "bias_constraint": null}, "inbound_nodes": [[["block35_10_ac", 0, 0, {}]]]}, {"name": "conv2d_482", "class_name": "Conv2D", "config": {"name": "conv2d_482", "trainable": true, "dtype": "float32", "filters": 384, "kernel_size": [3, 3], "strides": [2, 2], "padding": "valid", "data_format": "channels_last", "dilation_rate": [1, 1], "activation": "linear", "use_bias": false, "kernel_initializer": {"class_name": "VarianceScaling", "config": {"scale": 1.0, "mode": "fan_avg", "distribution": "uniform", "seed": null}}, "bias_initializer": {"class_name": "Zeros", "config": {}}, "kernel_regularizer": null, "bias_regularizer": null, "activity_regularizer": null, "kernel_constraint": null, "bias_constraint": null}, "inbound_nodes": [[["activation_757", 0, 0, {}]]]}, {"name": "batch_normalization_479", "class_name": "BatchNormalization", "config": {"name": "batch_normalization_479", "trainable": true, "dtype": "float32", "axis": 3, "momentum": 0.99, "epsilon": 0.001, "center": true, "scale": false, "beta_initializer": {"class_name": "Zeros", "config": {}}, "gamma_initializer": {"class_name": "Ones", "config": {}}, "moving_mean_initializer": {"class_name": "Zeros", "config": {}}, "moving_variance_initializer": {"class_name": "Ones", "config": {}}, "beta_regularizer": null, "gamma_regularizer": null, "beta_constraint": null, "gamma_constraint": null}, "inbound_nodes": [[["conv2d_479", 0, 0, {}]]]}, {"name": "batch_normalization_482", "class_name": "BatchNormalization", "config": {"name": "batch_normalization_482", "trainable": true, "dtype": "float32", "axis": 3, "momentum": 0.99, "epsilon": 0.001, "center": true, "scale": false, "beta_initializer": {"class_name": "Zeros", "config": {}}, "gamma_initializer": {"class_name": "Ones", "config": {}}, "moving_mean_initializer": {"class_name": "Zeros", "config": {}}, "moving_variance_initializer": {"class_name": "Ones", "config": {}}, "beta_regularizer": null, "gamma_regularizer": null, "beta_constraint": null, "gamma_constraint": null}, "inbound_nodes": [[["conv2d_482", 0, 0, {}]]]}, {"name": "activation_755", "class_name": "Activation", "config": {"name": "activation_755", "trainable": true, "dtype": "float32", "activation": "relu"}, "inbound_nodes": [[["batch_normalization_479", 0, 0, {}]]]}, {"name": "activation_758", "class_name": "Activation", "config": {"name": "activation_758", "trainable": true, "dtype": "float32", "activation": "relu"}, "inbound_nodes": [[["batch_normalization_482", 0, 0, {}]]]}, {"name": "max_pooling2d_17", "class_name": "MaxPooling2D", "config": {"name": "max_pooling2d_17", "trainable": true, "dtype": "float32", "pool_size": [3, 3], "padding": "valid", "strides": [2, 2], "data_format": "channels_last"}, "inbound_nodes": [[["block35_10_ac", 0, 0, {}]]]}, {"name": "mixed_6a", "class_name": "Concatenate", "config": {"name": "mixed_6a", "trainable": true, "dtype": "float32", "axis": 3}, "inbound_nodes": [[["activation_755", 0, 0, {}], ["activation_758", 0, 0, {}], ["max_pooling2d_17", 0, 0, {}]]]}, {"name": "conv2d_484", "class_name": "Conv2D", "config": {"name": "conv2d_484", "trainable": true, "dtype": "float32", "filters": 128, "kernel_size": [1, 1], "strides": [1, 1], "padding": "same", "data_format": "channels_last", "dilation_rate": [1, 1], "activation": "linear", "use_bias": false, "kernel_initializer": {"class_name": "VarianceScaling", "config": {"scale": 1.0, "mode": "fan_avg", "distribution": "uniform", "seed": null}}, "bias_initializer": {"class_name": "Zeros", "config": {}}, "kernel_regularizer": null, "bias_regularizer": null, "activity_regularizer": null, "kernel_constraint": null, "bias_constraint": null}, "inbound_nodes": [[["mixed_6a", 0, 0, {}]]]}, {"name": "batch_normalization_484", "class_name": "BatchNormalization", "config": {"name": "batch_normalization_484", "trainable": true, "dtype": "float32", "axis": 3, "momentum": 0.99, "epsilon": 0.001, "center": true, "scale": false, "beta_initializer": {"class_name": "Zeros", "config": {}}, "gamma_initializer": {"class_name": "Ones", "config": {}}, "moving_mean_initializer": {"class_name": "Zeros", "config": {}}, "moving_variance_initializer": {"class_name": "Ones", "config": {}}, "beta_regularizer": null, "gamma_regularizer": null, "beta_constraint": null, "gamma_constraint": null}, "inbound_nodes": [[["conv2d_484", 0, 0, {}]]]}, {"name": "activation_760", "class_name": "Activation", "config": {"name": "activation_760", "trainable": true, "dtype": "float32", "activation": "relu"}, "inbound_nodes": [[["batch_normalization_484", 0, 0, {}]]]}, {"name": "conv2d_485", "class_name": "Conv2D", "config": {"name": "conv2d_485", "trainable": true, "dtype": "float32", "filters": 160, "kernel_size": [1, 7], "strides": [1, 1], "padding": "same", "data_format": "channels_last", "dilation_rate": [1, 1], "activation": "linear", "use_bias": false, "kernel_initializer": {"class_name": "VarianceScaling", "config": {"scale": 1.0, "mode": "fan_avg", "distribution": "uniform", "seed": null}}, "bias_initializer": {"class_name": "Zeros", "config": {}}, "kernel_regularizer": null, "bias_regularizer": null, "activity_regularizer": null, "kernel_constraint": null, "bias_constraint": null}, "inbound_nodes": [[["activation_760", 0, 0, {}]]]}, {"name": "batch_normalization_485", "class_name": "BatchNormalization", "config": {"name": "batch_normalization_485", "trainable": true, "dtype": "float32", "axis": 3, "momentum": 0.99, "epsilon": 0.001, "center": true, "scale": false, "beta_initializer": {"class_name": "Zeros", "config": {}}, "gamma_initializer": {"class_name": "Ones", "config": {}}, "moving_mean_initializer": {"class_name": "Zeros", "config": {}}, "moving_variance_initializer": {"class_name": "Ones", "config": {}}, "beta_regularizer": null, "gamma_regularizer": null, "beta_constraint": null, "gamma_constraint": null}, "inbound_nodes": [[["conv2d_485", 0, 0, {}]]]}, {"name": "activation_761", "class_name": "Activation", "config": {"name": "activation_761", "trainable": true, "dtype": "float32", "activation": "relu"}, "inbound_nodes": [[["batch_normalization_485", 0, 0, {}]]]}, {"name": "conv2d_483", "class_name": "Conv2D", "config": {"name": "conv2d_483", "trainable": true, "dtype": "float32", "filters": 192, "kernel_size": [1, 1], "strides": [1, 1], "padding": "same", "data_format": "channels_last", "dilation_rate": [1, 1], "activation": "linear", "use_bias": false, "kernel_initializer": {"class_name": "VarianceScaling", "config": {"scale": 1.0, "mode": "fan_avg", "distribution": "uniform", "seed": null}}, "bias_initializer": {"class_name": "Zeros", "config": {}}, "kernel_regularizer": null, "bias_regularizer": null, "activity_regularizer": null, "kernel_constraint": null, "bias_constraint": null}, "inbound_nodes": [[["mixed_6a", 0, 0, {}]]]}, {"name": "conv2d_486", "class_name": "Conv2D", "config": {"name": "conv2d_486", "trainable": true, "dtype": "float32", "filters": 192, "kernel_size": [7, 1], "strides": [1, 1], "padding": "same", "data_format": "channels_last", "dilation_rate": [1, 1], "activation": "linear", "use_bias": false, "kernel_initializer": {"class_name": "VarianceScaling", "config": {"scale": 1.0, "mode": "fan_avg", "distribution": "uniform", "seed": null}}, "bias_initializer": {"class_name": "Zeros", "config": {}}, "kernel_regularizer": null, "bias_regularizer": null, "activity_regularizer": null, "kernel_constraint": null, "bias_constraint": null}, "inbound_nodes": [[["activation_761", 0, 0, {}]]]}, {"name": "batch_normalization_483", "class_name": "BatchNormalization", "config": {"name": "batch_normalization_483", "trainable": true, "dtype": "float32", "axis": 3, "momentum": 0.99, "epsilon": 0.001, "center": true, "scale": false, "beta_initializer": {"class_name": "Zeros", "config": {}}, "gamma_initializer": {"class_name": "Ones", "config": {}}, "moving_mean_initializer": {"class_name": "Zeros", "config": {}}, "moving_variance_initializer": {"class_name": "Ones", "config": {}}, "beta_regularizer": null, "gamma_regularizer": null, "beta_constraint": null, "gamma_constraint": null}, "inbound_nodes": [[["conv2d_483", 0, 0, {}]]]}, {"name": "batch_normalization_486", "class_name": "BatchNormalization", "config": {"name": "batch_normalization_486", "trainable": true, "dtype": "float32", "axis": 3, "momentum": 0.99, "epsilon": 0.001, "center": true, "scale": false, "beta_initializer": {"class_name": "Zeros", "config": {}}, "gamma_initializer": {"class_name": "Ones", "config": {}}, "moving_mean_initializer": {"class_name": "Zeros", "config": {}}, "moving_variance_initializer": {"class_name": "Ones", "config": {}}, "beta_regularizer": null, "gamma_regularizer": null, "beta_constraint": null, "gamma_constraint": null}, "inbound_nodes": [[["conv2d_486", 0, 0, {}]]]}, {"name": "activation_759", "class_name": "Activation", "config": {"name": "activation_759", "trainable": true, "dtype": "float32", "activation": "relu"}, "inbound_nodes": [[["batch_normalization_483", 0, 0, {}]]]}, {"name": "activation_762", "class_name": "Activation", "config": {"name": "activation_762", "trainable": true, "dtype": "float32", "activation": "relu"}, "inbound_nodes": [[["batch_normalization_486", 0, 0, {}]]]}, {"name": "block17_1_mixed", "class_name": "Concatenate", "config": {"name": "block17_1_mixed", "trainable": true, "dtype": "float32", "axis": 3}, "inbound_nodes": [[["activation_759", 0, 0, {}], ["activation_762", 0, 0, {}]]]}, {"name": "block17_1_conv", "class_name": "Conv2D", "config": {"name": "block17_1_conv", "trainable": true, "dtype": "float32", "filters": 1088, "kernel_size": [1, 1], "strides": [1, 1], "padding": "same", "data_format": "channels_last", "dilation_rate": [1, 1], "activation": "linear", "use_bias": true, "kernel_initializer": {"class_name": "VarianceScaling", "config": {"scale": 1.0, "mode": "fan_avg", "distribution": "uniform", "seed": null}}, "bias_initializer": {"class_name": "Zeros", "config": {}}, "kernel_regularizer": null, "bias_regularizer": null, "activity_regularizer": null, "kernel_constraint": null, "bias_constraint": null}, "inbound_nodes": [[["block17_1_mixed", 0, 0, {}]]]}, {"name": "block17_1", "class_name": "Lambda", "config": {"name": "block17_1", "trainable": true, "dtype": "float32", "function": ["4wIAAAAAAAAAAgAAAAMAAABTAAAAcxQAAAB8AGQBGQB8AGQCGQB8ARQAFwBTACkDTukAAAAA6QEA\nAACpACkC2gZpbnB1dHPaBXNjYWxlcgMAAAByAwAAAPpQL3Vzci9sb2NhbC9saWIvcHl0aG9uMy42\nL2Rpc3QtcGFja2FnZXMva2VyYXNfYXBwbGljYXRpb25zL2luY2VwdGlvbl9yZXNuZXRfdjIucHna\nCDxsYW1iZGE+qAAAAPMAAAAA\n", null, null], "function_type": "lambda", "output_shape": [8, 8, 1088], "output_shape_type": "raw", "arguments": {"scale": 0.1}}, "inbound_nodes": [[["mixed_6a", 0, 0, {}], ["block17_1_conv", 0, 0, {}]]]}, {"name": "block17_1_ac", "class_name": "Activation", "config": {"name": "block17_1_ac", "trainable": true, "dtype": "float32", "activation": "relu"}, "inbound_nodes": [[["block17_1", 0, 0, {}]]]}, {"name": "conv2d_488", "class_name": "Conv2D", "config": {"name": "conv2d_488", "trainable": true, "dtype": "float32", "filters": 128, "kernel_size": [1, 1], "strides": [1, 1], "padding": "same", "data_format": "channels_last", "dilation_rate": [1, 1], "activation": "linear", "use_bias": false, "kernel_initializer": {"class_name": "VarianceScaling", "config": {"scale": 1.0, "mode": "fan_avg", "distribution": "uniform", "seed": null}}, "bias_initializer": {"class_name": "Zeros", "config": {}}, "kernel_regularizer": null, "bias_regularizer": null, "activity_regularizer": null, "kernel_constraint": null, "bias_constraint": null}, "inbound_nodes": [[["block17_1_ac", 0, 0, {}]]]}, {"name": "batch_normalization_488", "class_name": "BatchNormalization", "config": {"name": "batch_normalization_488", "trainable": true, "dtype": "float32", "axis": 3, "momentum": 0.99, "epsilon": 0.001, "center": true, "scale": false, "beta_initializer": {"class_name": "Zeros", "config": {}}, "gamma_initializer": {"class_name": "Ones", "config": {}}, "moving_mean_initializer": {"class_name": "Zeros", "config": {}}, "moving_variance_initializer": {"class_name": "Ones", "config": {}}, "beta_regularizer": null, "gamma_regularizer": null, "beta_constraint": null, "gamma_constraint": null}, "inbound_nodes": [[["conv2d_488", 0, 0, {}]]]}, {"name": "activation_764", "class_name": "Activation", "config": {"name": "activation_764", "trainable": true, "dtype": "float32", "activation": "relu"}, "inbound_nodes": [[["batch_normalization_488", 0, 0, {}]]]}, {"name": "conv2d_489", "class_name": "Conv2D", "config": {"name": "conv2d_489", "trainable": true, "dtype": "float32", "filters": 160, "kernel_size": [1, 7], "strides": [1, 1], "padding": "same", "data_format": "channels_last", "dilation_rate": [1, 1], "activation": "linear", "use_bias": false, "kernel_initializer": {"class_name": "VarianceScaling", "config": {"scale": 1.0, "mode": "fan_avg", "distribution": "uniform", "seed": null}}, "bias_initializer": {"class_name": "Zeros", "config": {}}, "kernel_regularizer": null, "bias_regularizer": null, "activity_regularizer": null, "kernel_constraint": null, "bias_constraint": null}, "inbound_nodes": [[["activation_764", 0, 0, {}]]]}, {"name": "batch_normalization_489", "class_name": "BatchNormalization", "config": {"name": "batch_normalization_489", "trainable": true, "dtype": "float32", "axis": 3, "momentum": 0.99, "epsilon": 0.001, "center": true, "scale": false, "beta_initializer": {"class_name": "Zeros", "config": {}}, "gamma_initializer": {"class_name": "Ones", "config": {}}, "moving_mean_initializer": {"class_name": "Zeros", "config": {}}, "moving_variance_initializer": {"class_name": "Ones", "config": {}}, "beta_regularizer": null, "gamma_regularizer": null, "beta_constraint": null, "gamma_constraint": null}, "inbound_nodes": [[["conv2d_489", 0, 0, {}]]]}, {"name": "activation_765", "class_name": "Activation", "config": {"name": "activation_765", "trainable": true, "dtype": "float32", "activation": "relu"}, "inbound_nodes": [[["batch_normalization_489", 0, 0, {}]]]}, {"name": "conv2d_487", "class_name": "Conv2D", "config": {"name": "conv2d_487", "trainable": true, "dtype": "float32", "filters": 192, "kernel_size": [1, 1], "strides": [1, 1], "padding": "same", "data_format": "channels_last", "dilation_rate": [1, 1], "activation": "linear", "use_bias": false, "kernel_initializer": {"class_name": "VarianceScaling", "config": {"scale": 1.0, "mode": "fan_avg", "distribution": "uniform", "seed": null}}, "bias_initializer": {"class_name": "Zeros", "config": {}}, "kernel_regularizer": null, "bias_regularizer": null, "activity_regularizer": null, "kernel_constraint": null, "bias_constraint": null}, "inbound_nodes": [[["block17_1_ac", 0, 0, {}]]]}, {"name": "conv2d_490", "class_name": "Conv2D", "config": {"name": "conv2d_490", "trainable": true, "dtype": "float32", "filters": 192, "kernel_size": [7, 1], "strides": [1, 1], "padding": "same", "data_format": "channels_last", "dilation_rate": [1, 1], "activation": "linear", "use_bias": false, "kernel_initializer": {"class_name": "VarianceScaling", "config": {"scale": 1.0, "mode": "fan_avg", "distribution": "uniform", "seed": null}}, "bias_initializer": {"class_name": "Zeros", "config": {}}, "kernel_regularizer": null, "bias_regularizer": null, "activity_regularizer": null, "kernel_constraint": null, "bias_constraint": null}, "inbound_nodes": [[["activation_765", 0, 0, {}]]]}, {"name": "batch_normalization_487", "class_name": "BatchNormalization", "config": {"name": "batch_normalization_487", "trainable": true, "dtype": "float32", "axis": 3, "momentum": 0.99, "epsilon": 0.001, "center": true, "scale": false, "beta_initializer": {"class_name": "Zeros", "config": {}}, "gamma_initializer": {"class_name": "Ones", "config": {}}, "moving_mean_initializer": {"class_name": "Zeros", "config": {}}, "moving_variance_initializer": {"class_name": "Ones", "config": {}}, "beta_regularizer": null, "gamma_regularizer": null, "beta_constraint": null, "gamma_constraint": null}, "inbound_nodes": [[["conv2d_487", 0, 0, {}]]]}, {"name": "batch_normalization_490", "class_name": "BatchNormalization", "config": {"name": "batch_normalization_490", "trainable": true, "dtype": "float32", "axis": 3, "momentum": 0.99, "epsilon": 0.001, "center": true, "scale": false, "beta_initializer": {"class_name": "Zeros", "config": {}}, "gamma_initializer": {"class_name": "Ones", "config": {}}, "m…
YXRpb25zL2luY2VwdGlvbl9yZXNuZXRfdjIucHna\nCDxsYW1iZGE+qAAAAPMAAAAA\n", null, null], "function_type": "lambda", "output_shape": [3, 3, 2080], "output_shape_type": "raw", "arguments": {"scale": 0.2}}, "inbound_nodes": [[["block8_3_ac", 0, 0, {}], ["block8_4_conv", 0, 0, {}]]]}, {"name": "block8_4_ac", "class_name": "Activation", "config": {"name": "block8_4_ac", "trainable": true, "dtype": "float32", "activation": "relu"}, "inbound_nodes": [[["block8_4", 0, 0, {}]]]}, {"name": "conv2d_587", "class_name": "Conv2D", "config": {"name": "conv2d_587", "trainable": true, "dtype": "float32", "filters": 192, "kernel_size": [1, 1], "strides": [1, 1], "padding": "same", "data_format": "channels_last", "dilation_rate": [1, 1], "activation": "linear", "use_bias": false, "kernel_initializer": {"class_name": "VarianceScaling", "config": {"scale": 1.0, "mode": "fan_avg", "distribution": "uniform", "seed": null}}, "bias_initializer": {"class_name": "Zeros", "config": {}}, "kernel_regularizer": null, "bias_regularizer": null, "activity_regularizer": null, "kernel_constraint": null, "bias_constraint": null}, "inbound_nodes": [[["block8_4_ac", 0, 0, {}]]]}, {"name": "batch_normalization_587", "class_name": "BatchNormalization", "config": {"name": "batch_normalization_587", "trainable": true, "dtype": "float32", "axis": 3, "momentum": 0.99, "epsilon": 0.001, "center": true, "scale": false, "beta_initializer": {"class_name": "Zeros", "config": {}}, "gamma_initializer": {"class_name": "Ones", "config": {}}, "moving_mean_initializer": {"class_name": "Zeros", "config": {}}, "moving_variance_initializer": {"class_name": "Ones", "config": {}}, "beta_regularizer": null, "gamma_regularizer": null, "beta_constraint": null, "gamma_constraint": null}, "inbound_nodes": [[["conv2d_587", 0, 0, {}]]]}, {"name": "activation_863", "class_name": "Activation", "config": {"name": "activation_863", "trainable": true, "dtype": "float32", "activation": "relu"}, "inbound_nodes": [[["batch_normalization_587", 0, 0, {}]]]}, {"name": "conv2d_588", "class_name": "Conv2D", "config": {"name": "conv2d_588", "trainable": true, "dtype": "float32", "filters": 224, "kernel_size": [1, 3], "strides": [1, 1], "padding": "same", "data_format": "channels_last", "dilation_rate": [1, 1], "activation": "linear", "use_bias": false, "kernel_initializer": {"class_name": "VarianceScaling", "config": {"scale": 1.0, "mode": "fan_avg", "distribution": "uniform", "seed": null}}, "bias_initializer": {"class_name": "Zeros", "config": {}}, "kernel_regularizer": null, "bias_regularizer": null, "activity_regularizer": null, "kernel_constraint": null, "bias_constraint": null}, "inbound_nodes": [[["activation_863", 0, 0, {}]]]}, {"name": "batch_normalization_588", "class_name": "BatchNormalization", "config": {"name": "batch_normalization_588", "trainable": true, "dtype": "float32", "axis": 3, "momentum": 0.99, "epsilon": 0.001, "center": true, "scale": false, "beta_initializer": {"class_name": "Zeros", "config": {}}, "gamma_initializer": {"class_name": "Ones", "config": {}}, "moving_mean_initializer": {"class_name": "Zeros", "config": {}}, "moving_variance_initializer": {"class_name": "Ones", "config": {}}, "beta_regularizer": null, "gamma_regularizer": null, "beta_constraint": null, "gamma_constraint": null}, "inbound_nodes": [[["conv2d_588", 0, 0, {}]]]}, {"name": "activation_864", "class_name": "Activation", "config": {"name": "activation_864", "trainable": true, "dtype": "float32", "activation": "relu"}, "inbound_nodes": [[["batch_normalization_588", 0, 0, {}]]]}, {"name": "conv2d_586", "class_name": "Conv2D", "config": {"name": "conv2d_586", "trainable": true, "dtype": "float32", "filters": 192, "kernel_size": [1, 1], "strides": [1, 1], "padding": "same", "data_format": "channels_last", "dilation_rate": [1, 1], "activation": "linear", "use_bias": false, "kernel_initializer": {"class_name": "VarianceScaling", "config": {"scale": 1.0, "mode": "fan_avg", "distribution": "uniform", "seed": null}}, "bias_initializer": {"class_name": "Zeros", "config": {}}, "kernel_regularizer": null, "bias_regularizer": null, "activity_regularizer": null, "kernel_constraint": null, "bias_constraint": null}, "inbound_nodes": [[["block8_4_ac", 0, 0, {}]]]}, {"name": "conv2d_589", "class_name": "Conv2D", "config": {"name": "conv2d_589", "trainable": true, "dtype": "float32", "filters": 256, "kernel_size": [3, 1], "strides": [1, 1], "padding": "same", "data_format": "channels_last", "dilation_rate": [1, 1], "activation": "linear", "use_bias": false, "kernel_initializer": {"class_name": "VarianceScaling", "config": {"scale": 1.0, "mode": "fan_avg", "distribution": "uniform", "seed": null}}, "bias_initializer": {"class_name": "Zeros", "config": {}}, "kernel_regularizer": null, "bias_regularizer": null, "activity_regularizer": null, "kernel_constraint": null, "bias_constraint": null}, "inbound_nodes": [[["activation_864", 0, 0, {}]]]}, {"name": "batch_normalization_586", "class_name": "BatchNormalization", "config": {"name": "batch_normalization_586", "trainable": true, "dtype": "float32", "axis": 3, "momentum": 0.99, "epsilon": 0.001, "center": true, "scale": false, "beta_initializer": {"class_name": "Zeros", "config": {}}, "gamma_initializer": {"class_name": "Ones", "config": {}}, "moving_mean_initializer": {"class_name": "Zeros", "config": {}}, "moving_variance_initializer": {"class_name": "Ones", "config": {}}, "beta_regularizer": null, "gamma_regularizer": null, "beta_constraint": null, "gamma_constraint": null}, "inbound_nodes": [[["conv2d_586", 0, 0, {}]]]}, {"name": "batch_normalization_589", "class_name": "BatchNormalization", "config": {"name": "batch_normalization_589", "trainable": true, "dtype": "float32", "axis": 3, "momentum": 0.99, "epsilon": 0.001, "center": true, "scale": false, "beta_initializer": {"class_name": "Zeros", "config": {}}, "gamma_initializer": {"class_name": "Ones", "config": {}}, "moving_mean_initializer": {"class_name": "Zeros", "config": {}}, "moving_variance_initializer": {"class_name": "Ones", "config": {}}, "beta_regularizer": null, "gamma_regularizer": null, "beta_constraint": null, "gamma_constraint": null}, "inbound_nodes": [[["conv2d_589", 0, 0, {}]]]}, {"name": "activation_862", "class_name": "Activation", "config": {"name": "activation_862", "trainable": true, "dtype": "float32", "activation": "relu"}, "inbound_nodes": [[["batch_normalization_586", 0, 0, {}]]]}, {"name": "activation_865", "class_name": "Activation", "config": {"name": "activation_865", "trainable": true, "dtype": "float32", "activation": "relu"}, "inbound_nodes": [[["batch_normalization_589", 0, 0, {}]]]}, {"name": "block8_5_mixed", "class_name": "Concatenate", "config": {"name": "block8_5_mixed", "trainable": true, "dtype": "float32", "axis": 3}, "inbound_nodes": [[["activation_862", 0, 0, {}], ["activation_865", 0, 0, {}]]]}, {"name": "block8_5_conv", "class_name": "Conv2D", "config": {"name": "block8_5_conv", "trainable": true, "dtype": "float32", "filters": 2080, "kernel_size": [1, 1], "strides": [1, 1], "padding": "same", "data_format": "channels_last", "dilation_rate": [1, 1], "activation": "linear", "use_bias": true, "kernel_initializer": {"class_name": "VarianceScaling", "config": {"scale": 1.0, "mode": "fan_avg", "distribution": "uniform", "seed": null}}, "bias_initializer": {"class_name": "Zeros", "config": {}}, "kernel_regularizer": null, "bias_regularizer": null, "activity_regularizer": null, "kernel_constraint": null, "bias_constraint": null}, "inbound_nodes": [[["block8_5_mixed", 0, 0, {}]]]}, {"name": "block8_5", "class_name": "Lambda", "config": {"name": "block8_5", "trainable": true, "dtype": "float32", "function": ["4wIAAAAAAAAAAgAAAAMAAABTAAAAcxQAAAB8AGQBGQB8AGQCGQB8ARQAFwBTACkDTukAAAAA6QEA\nAACpACkC2gZpbnB1dHPaBXNjYWxlcgMAAAByAwAAAPpQL3Vzci9sb2NhbC9saWIvcHl0aG9uMy42\nL2Rpc3QtcGFja2FnZXMva2VyYXNfYXBwbGljYXRpb25zL2luY2VwdGlvbl9yZXNuZXRfdjIucHna\nCDxsYW1iZGE+qAAAAPMAAAAA\n", null, null], "function_type": "lambda", "output_shape": [3, 3, 2080], "output_shape_type": "raw", "arguments": {"scale": 0.2}}, "inbound_nodes": [[["block8_4_ac", 0, 0, {}], ["block8_5_conv", 0, 0, {}]]]}, {"name": "block8_5_ac", "class_name": "Activation", "config": {"name": "block8_5_ac", "trainable": true, "dtype": "float32", "activation": "relu"}, "inbound_nodes": [[["block8_5", 0, 0, {}]]]}, {"name": "conv2d_591", "class_name": "Conv2D", "config": {"name": "conv2d_591", "trainable": true, "dtype": "float32", "filters": 192, "kernel_size": [1, 1], "strides": [1, 1], "padding": "same", "data_format": "channels_last", "dilation_rate": [1, 1], "activation": "linear", "use_bias": false, "kernel_initializer": {"class_name": "VarianceScaling", "config": {"scale": 1.0, "mode": "fan_avg", "distribution": "uniform", "seed": null}}, "bias_initializer": {"class_name": "Zeros", "config": {}}, "kernel_regularizer": null, "bias_regularizer": null, "activity_regularizer": null, "kernel_constraint": null, "bias_constraint": null}, "inbound_nodes": [[["block8_5_ac", 0, 0, {}]]]}, {"name": "batch_normalization_591", "class_name": "BatchNormalization", "config": {"name": "batch_normalization_591", "trainable": true, "dtype": "float32", "axis": 3, "momentum": 0.99, "epsilon": 0.001, "center": true, "scale": false, "beta_initializer": {"class_name": "Zeros", "config": {}}, "gamma_initializer": {"class_name": "Ones", "config": {}}, "moving_mean_initializer": {"class_name": "Zeros", "config": {}}, "moving_variance_initializer": {"class_name": "Ones", "config": {}}, "beta_regularizer": null, "gamma_regularizer": null, "beta_constraint": null, "gamma_constraint": null}, "inbound_nodes": [[["conv2d_591", 0, 0, {}]]]}, {"name": "activation_867", "class_name": "Activation", "config": {"name": "activation_867", "trainable": true, "dtype": "float32", "activation": "relu"}, "inbound_nodes": [[["batch_normalization_591", 0, 0, {}]]]}, {"name": "conv2d_592", "class_name": "Conv2D", "config": {"name": "conv2d_592", "trainable": true, "dtype": "float32", "filters": 224, "kernel_size": [1, 3], "strides": [1, 1], "padding": "same", "data_format": "channels_last", "dilation_rate": [1, 1], "activation": "linear", "use_bias": false, "kernel_initializer": {"class_name": "VarianceScaling", "config": {"scale": 1.0, "mode": "fan_avg", "distribution": "uniform", "seed": null}}, "bias_initializer": {"class_name": "Zeros", "config": {}}, "kernel_regularizer": null, "bias_regularizer": null, "activity_regularizer": null, "kernel_constraint": null, "bias_constraint": null}, "inbound_nodes": [[["activation_867", 0, 0, {}]]]}, {"name": "batch_normalization_592", "class_name": "BatchNormalization", "config": {"name": "batch_normalization_592", "trainable": true, "dtype": "float32", "axis": 3, "momentum": 0.99, "epsilon": 0.001, "center": true, "scale": false, "beta_initializer": {"class_name": "Zeros", "config": {}}, "gamma_initializer": {"class_name": "Ones", "config": {}}, "moving_mean_initializer": {"class_name": "Zeros", "config": {}}, "moving_variance_initializer": {"class_name": "Ones", "config": {}}, "beta_regularizer": null, "gamma_regularizer": null, "beta_constraint": null, "gamma_constraint": null}, "inbound_nodes": [[["conv2d_592", 0, 0, {}]]]}, {"name": "activation_868", "class_name": "Activation", "config": {"name": "activation_868", "trainable": true, "dtype": "float32", "activation": "relu"}, "inbound_nodes": [[["batch_normalization_592", 0, 0, {}]]]}, {"name": "conv2d_590", "class_name": "Conv2D", "config": {"name": "conv2d_590", "trainable": true, "dtype": "float32", "filters": 192, "kernel_size": [1, 1], "strides": [1, 1], "padding": "same", "data_format": "channels_last", "dilation_rate": [1, 1], "activation": "linear", "use_bias": false, "kernel_initializer": {"class_name": "VarianceScaling", "config": {"scale": 1.0, "mode": "fan_avg", "distribution": "uniform", "seed": null}}, "bias_initializer": {"class_name": "Zeros", "config": {}}, "kernel_regularizer": null, "bias_regularizer": null, "activity_regularizer": null, "kernel_constraint": null, "bias_constraint": null}, "inbound_nodes": [[["block8_5_ac", 0, 0, {}]]]}, {"name": "conv2d_593", "class_name": "Conv2D", "config": {"name": "conv2d_593", "trainable": true, "dtype": "float32", "filters": 256, "kernel_size": [3, 1], "strides": [1, 1], "padding": "same", "data_format": "channels_last", "dilation_rate": [1, 1], "activation": "linear", "use_bias": false, "kernel_initializer": {"class_name": "VarianceScaling", "config": {"scale": 1.0, "mode": "fan_avg", "distribution": "uniform", "seed": null}}, "bias_initializer": {"class_name": "Zeros", "config": {}}, "kernel_regularizer": null, "bias_regularizer": null, "activity_regularizer": null, "kernel_constraint": null, "bias_constraint": null}, "inbound_nodes": [[["activation_868", 0, 0, {}]]]}, {"name": "batch_normalization_590", "class_name": "BatchNormalization", "config": {"name": "batch_normalization_590", "trainable": true, "dtype": "float32", "axis": 3, "momentum": 0.99, "epsilon": 0.001, "center": true, "scale": false, "beta_initializer": {"class_name": "Zeros", "config": {}}, "gamma_initializer": {"class_name": "Ones", "config": {}}, "moving_mean_initializer": {"class_name": "Zeros", "config": {}}, "moving_variance_initializer": {"class_name": "Ones", "config": {}}, "beta_regularizer": null, "gamma_regularizer": null, "beta_constraint": null, "gamma_constraint": null}, "inbound_nodes": [[["conv2d_590", 0, 0, {}]]]}, {"name": "batch_normalization_593", "class_name": "BatchNormalization", "config": {"name": "batch_normalization_593", "trainable": true, "dtype": "float32", "axis": 3, "momentum": 0.99, "epsilon": 0.001, "center": true, "scale": false, "beta_initializer": {"class_name": "Zeros", "config": {}}, "gamma_initializer": {"class_name": "Ones", "config": {}}, "moving_mean_initializer": {"class_name": "Zeros", "config": {}}, "moving_variance_initializer": {"class_name": "Ones", "config": {}}, "beta_regularizer": null, "gamma_regularizer": null, "beta_constraint": null, "gamma_constraint": null}, "inbound_nodes": [[["conv2d_593", 0, 0, {}]]]}, {"name": "activation_866", "class_name": "Activation", "config": {"name": "activation_866", "trainable": true, "dtype": "float32", "activation": "relu"}, "inbound_nodes": [[["batch_normalization_590", 0, 0, {}]]]}, {"name": "activation_869", "class_name": "Activation", "config": {"name": "activation_869", "trainable": true, "dtype": "float32", "activation": "relu"}, "inbound_nodes": [[["batch_normalization_593", 0, 0, {}]]]}, {"name": "block8_6_mixed", "class_name": "Concatenate", "config": {"name": "block8_6_mixed", "trainable": true, "dtype": "float32", "axis": 3}, "inbound_nodes": [[["activation_866", 0, 0, {}], ["activation_869", 0, 0, {}]]]}, {"name": "block8_6_conv", "class_name": "Conv2D", "config": {"name": "block8_6_conv", "trainable": true, "dtype": "float32", "filters": 2080, "kernel_size": [1, 1], "strides": [1, 1], "padding": "same", "data_format": "channels_last", "dilation_rate": [1, 1], "activation": "linear", "use_bias": true, "kernel_initializer": {"class_name": "VarianceScaling", "config": {"scale": 1.0, "mode": "fan_avg", "distribution": "uniform", "seed": null}}, "bias_initializer": {"class_name": "Zeros", "config": {}}, "kernel_regularizer": null, "bias_regularizer": null, "activity_regularizer": null, "kernel_constraint": null, "bias_constraint": null}, "inbound_nodes": [[["block8_6_mixed", 0, 0, {}]]]}, {"name": "block8_6", "class_name": "Lambda", "config": {"name": "block8_6", "trainable": true, "dtype": "float32", "function": ["4wIAAAAAAAAAAgAAAAMAAABTAAAAcxQAAAB8AGQBGQB8AGQCGQB8ARQAFwBTACkDTukAAAAA6QEA\nAACpACkC2gZpbnB1dHPaBXNjYWxlcgMAAAByAwAAAPpQL3Vzci9sb2NhbC9saWIvcHl0aG9uMy42\nL2Rpc3QtcGFja2FnZXMva2VyYXNfYXBwbGljYXRpb25zL2luY2VwdGlvbl9yZXNuZXRfdjIucHna\nCDxsYW1iZGE+qAAAAPMAAAAA\n", null, null], "function_type": "lambda", "output_shape": [3, 3, 2080], "output_shape_type": "raw", "arguments": {"scale": 0.2}}, "inbound_nodes": [[["block8_5_ac", 0, 0, {}], ["block8_6_conv", 0, 0, {}]]]}, {"name": "block8_6_ac", "class_name": "Activation", "config": {"name": "block8_6_ac", "trainable": true, "dtype": "float32", "activation": "relu"}, "inbound_nodes": [[["block8_6", 0, 0, {}]]]}, {"name": "conv2d_595", "class_name": "Conv2D", "config": {"name": "conv2d_595", "trainable": true, "dtype": "float32", "filters": 192, "kernel_size": [1, 1], "strides": [1, 1], "padding": "same", "data_format": "channels_last", "dilation_rate": [1, 1], "activation": "linear", "use_bias": false, "kernel_initializer": {"class_name": "VarianceScaling", "config": {"scale": 1.0, "mode": "fan_avg", "distribution": "uniform", "seed": null}}, "bias_initializer": {"class_name": "Zeros", "config": {}}, "kernel_regularizer": null, "bias_regularizer": null, "activity_regularizer": null, "kernel_constraint": null, "bias_constraint": null}, "inbound_nodes": [[["block8_6_ac", 0, 0, {}]]]}, {"name": "batch_normalization_595", "class_name": "BatchNormalization", "config": {"name": "batch_normalization_595", "trainable": true, "dtype": "float32", "axis": 3, "momentum": 0.99, "epsilon": 0.001, "center": true, "scale": false, "beta_initializer": {"class_name": "Zeros", "config": {}}, "gamma_initializer": {"class_name": "Ones", "config": {}}, "moving_mean_initializer": {"class_name": "Zeros", "config": {}}, "moving_variance_initializer": {"class_name": "Ones", "config": {}}, "beta_regularizer": null, "gamma_regularizer": null, "beta_constraint": null, "gamma_constraint": null}, "inbound_nodes": [[["conv2d_595", 0, 0, {}]]]}, {"name": "activation_871", "class_name": "Activation", "config": {"name": "activation_871", "trainable": true, "dtype": "float32", "activation": "relu"}, "inbound_nodes": [[["batch_normalization_595", 0, 0, {}]]]}, {"name": "conv2d_596", "class_name": "Conv2D", "config": {"name": "conv2d_596", "trainable": true, "dtype": "float32", "filters": 224, "kernel_size": [1, 3], "strides": [1, 1], "padding": "same", "data_format": "channels_last", "dilation_rate": [1, 1], "activation": "linear", "use_bias": false, "kernel_initializer": {"class_name": "VarianceScaling", "config": {"scale": 1.0, "mode": "fan_avg", "distribution": "uniform", "seed": null}}, "bias_initializer": {"class_name": "Zeros", "config": {}}, "kernel_regularizer": null, "bias_regularizer": null, "activity_regularizer": null, "kernel_constraint": null, "bias_constraint": null}, "inbound_nodes": [[["activation_871", 0, 0, {}]]]}, {"name": "batch_normalization_596", "class_name": "BatchNormalization", "config": {"name": "batch_normalization_596", "trainable": true, "dtype": "float32", "axis": 3, "momentum": 0.99, "epsilon": 0.001, "center": true, "scale": false, "beta_initializer": {"class_name": "Zeros", "config": {}}, "gamma_initializer": {"class_name": "Ones", "config": {}}, "moving_mean_initializer": {"class_name": "Zeros", "config": {}}, "moving_variance_initializer": {"class_name": "Ones", "config": {}}, "beta_regularizer": null, "gamma_regularizer": null, "beta_constraint": null, "gamma_constraint": null}, "inbound_nodes": [[["conv2d_596", 0, 0, {}]]]}, {"name": "activation_872", "class_name": "Activation", "config": {"name": "activation_872", "trainable": true, "dtype": "float32", "activation": "relu"}, "inbound_nodes": [[["batch_normalization_596", 0, 0, {}]]]}, {"name": "conv2d_594", "class_name": "Conv2D", "config": {"name": "conv2d_594", "trainable": true, "dtype": "float32", "filters": 192, "kernel_size": [1, 1], "strides": [1, 1], "padding": "same", "data_format": "channels_last", "dilation_rate": [1, 1], "activation": "linear", "use_bias": false, "kernel_initializer": {"class_name": "VarianceScaling", "config": {"scale": 1.0, "mode": "fan_avg", "distribution": "uniform", "seed": null}}, "bias_initializer": {"class_name": "Zeros", "config": {}}, "kernel_regularizer": null, "bias_regularizer": null, "activity_regularizer": null, "kernel_constraint": null, "bias_constraint": null}, "inbound_nodes": [[["block8_6_ac", 0, 0, {}]]]}, {"name": "conv2d_597", "class_name": "Conv2D", "config": {"name": "conv2d_597", "trainable": true, "dtype": "float32", "filters": 256, "kernel_size": [3, 1], "strides": [1, 1], "padding": "same", "data_format": "channels_last", "dilation_rate": [1, 1], "activation": "linear", "use_bias": false, "kernel_initializer": {"class_name": "VarianceScaling", "config": {"scale": 1.0, "mode": "fan_avg", "distribution": "uniform", "seed": null}}, "bias_initializer": {"class_name": "Zeros", "config": {}}, "kernel_regularizer": null, "bias_regularizer": null, "activity_regularizer": null, "kernel_constraint": null, "bias_constraint": null}, "inbound_nodes": [[["activation_872", 0, 0, {}]]]}, {"name": "batch_normalization_594", "class_name": "BatchNormalization", "config": {"name": "batch_normalization_594", "trainable": true, "dtype": "float32", "axis": 3, "momentum": 0.99, "epsilon": 0.001, "center": true, "scale": false, "beta_initializer": {"class_name": "Zeros", "config": {}}, "gamma_initializer": {"class_name": "Ones", "config": {}}, "moving_mean_initializer": {"class_name": "Zeros", "config": {}}, "moving_variance_initializer": {"class_name": "Ones", "config": {}}, "beta_regularizer": null, "gamma_regularizer": null, "beta_constraint": null, "gamma_constraint": null}, "inbound_nodes": [[["conv2d_594", 0, 0, {}]]]}, {"name": "batch_normalization_597", "class_name": "BatchNormalization", "config": {"name": "batch_normalization_597", "trainable": true, "dtype": "float32", "axis": 3, "momentum": 0.99, "epsilon": 0.001, "center": true, "scale": false, "beta_initializer": {"class_name": "Zeros", "config": {}}, "gamma_initializer": {"class_name": "Ones", "config": {}}, "moving_mean_initializer": {"class_name": "Zeros", "config": {}}, "moving_variance_initializer": {"class_name": "Ones", "config": {}}, "beta_regularizer": null, "gamma_regularizer": null, "beta_constraint": null, "gamma_constraint": null}, "inbound_nodes": [[["conv2d_597", 0, 0, {}]]]}, {"name": "activation_870", "class_name": "Activation", "config": {"name": "activation_870", "trainable": true, "dtype": "float32", "activation": "relu"}, "inbound_nodes": [[["batch_normalization_594", 0, 0, {}]]]}, {"name": "activation_873", "class_name": "Activation", "config": {"name": "activation_873", "trainable": true, "dtype": "float32", "activation": "relu"}, "inbound_nodes": [[["batch_normalization_597", 0, 0, {}]]]}, {"name": "block8_7_mixed", "class_name": "Concatenate", "config": {"name": "block8_7_mixed", "trainable": true, "dtype": "float32", "axis": 3}, "inbound_nodes": [[["activation_870", 0, 0, {}], ["activation_873", 0, 0, {}]]]}, {"name": "block8_7_conv", "class_name": "Conv2D", "config": {"name": "block8_7_conv", "trainable": true, "dtype": "float32", "filters": 2080, "kernel_size": [1, 1], "strides": [1, 1], "padding": "same", "data_format": "channels_last", "dilation_rate": [1, 1], "activation": "linear", "use_bias": true, "kernel_initializer": {"class_name": "VarianceScaling", "config": {"scale": 1.0, "mode": "fan_avg", "distribution": "uniform", "seed": null}}, "bias_initializer": {"class_name": "Zeros", "config": {}}, "kernel_regularizer": null, "bias_regularizer": null, "activity_regularizer": null, "kernel_constraint": null, "bias_constraint": null}, "inbound_nodes": [[["block8_7_mixed", 0, 0, {}]]]}, {"name": "block8_7", "class_name": "Lambda", "config": {"name": "block8_7", "trainable": true, "dtype": "float32", "function": ["4wIAAAAAAAAAAgAAAAMAAABTAAAAcxQAAAB8AGQBGQB8AGQCGQB8ARQAFwBTACkDTukAAAAA6QEA\nAACpACkC2gZpbnB1dHPaBXNjYWxlcgMAAAByAwAAAPpQL3Vzci9sb2NhbC9saWIvcHl0aG9uMy42\nL2Rpc3QtcGFja2FnZXMva2VyYXNfYXBwbGljYXRpb25zL2luY2VwdGlvbl9yZXNuZXRfdjIucHna\nCDxsYW1iZGE+qAAAAPMAAAAA\n", null, null], "function_type": "lambda", "output_shape": [3, 3, 2080], "output_shape_type": "raw", "arguments": {"scale": 0.2}}, "inbound_nodes": [[["block8_6_ac", 0, 0, {}], ["block8_7_conv", 0, 0, {}]]]}, {"name": "block8_7_ac", "class_name": "Activation", "config": {"name": "block8_7_ac", "trainable": true, "dtype": "float32", "activation": "relu"}, "inbound_nodes": [[["block8_7", 0, 0, {}]]]}, {"name": "conv2d_599", "class_name": "Conv2D", "config": {"name": "conv2d_599", "trainable": true, "dtype": "float32", "filters": 192, "kernel_size": [1, 1], "strides": [1, 1], "padding": "same", "data_format": "channels_last", "dilation_rate": [1, 1], "activation": "linear", "use_bias": false, "kernel_initializer": {"class_name": "VarianceScaling", "config": {"scale": 1.0, "mode": "fan_avg", "distribution": "uniform", "seed": null}}, "bias_initializer": {"class_name": "Zeros", "config": {}}, "kernel_regularizer": null, "bias_regularizer": null, "activity_regularizer": null, "kernel_constraint": null, "bias_constraint": null}, "inbound_nodes": [[["block8_7_ac", 0, 0, {}]]]}, {"name": "batch_normalization_599", "class_name": "BatchNormalization", "config": {"name": "batch_normalization_599", "trainable": true, "dtype": "float32", "axis": 3, "momentum": 0.99, "epsilon": 0.001, "center": true, "scale": false, "beta_initializer": {"class_name": "Zeros", "config": {}}, "gamma_initializer": {"class_name": "Ones", "config": {}}, "moving_mean_initializer": {"class_name": "Zeros", "config": {}}, "moving_variance_initializer": {"class_name": "Ones", "config": {}}, "beta_regularizer": null, "gamma_regularizer": null, "beta_constraint": null, "gamma_constraint": null}, "inbound_nodes": [[["conv2d_599", 0, 0, {}]]]}, {"name": "activation_875", "class_name": "Activation", "config": {"name": "activation_875", "trainable": true, "dtype": "float32", "activation": "relu"}, "inbound_nodes": [[["batch_normalization_599", 0, 0, {}]]]}, {"name": "conv2d_600", "class_name": "Conv2D", "config": {"name": "conv2d_600", "trainable": true, "dtype": "float32", "filters": 224, "kernel_size": [1, 3], "strides": [1, 1], "padding": "same", "data_format": "channels_last", "dilation_rate": [1, 1], "activation": "linear", "use_bias": false, "kernel_initializer": {"class_name": "VarianceScaling", "config": {"scale": 1.0, "mode": "fan_avg", "distribution": "uniform", "seed": null}}, "bias_initializer": {"class_name": "Zeros", "config": {}}, "kernel_regularizer": null, "bias_regularizer": null, "activity_regularizer": null, "kernel_constraint": null, "bias_constraint": null}, "inbound_nodes": [[["activation_875", 0, 0, {}]]]}, {"name": "batch_normalization_600", "class_name": "BatchNormalization", "config": {"name": "batch_normalization_600", "trainable": true, "dtype": "float32", "axis": 3, "momentum": 0.99, "epsilon": 0.001, "center": true, "scale": false, "beta_initializer": {"class_name": "Zeros", "config": {}}, "gamma_initializer": {"class_name": "Ones", "config": {}}, "moving_mean_initializer": {"class_name": "Zeros", "config": {}}, "moving_variance_initializer": {"class_name": "Ones", "config": {}}, "beta_regularizer": null, "gamma_regularizer": null, "beta_constraint": null, "gamma_constraint": null}, "inbound_nodes": [[["conv2d_600", 0, 0, {}]]]}, {"name": "activation_876", "class_name": "Activation", "config": {"name": "activation_876", "trainable": true, "dtype": "float32", "activation": "relu"}, "inbound_nodes": [[["batch_normalization_600", 0, 0, {}]]]}, {"name": "conv2d_598", "class_name": "Conv2D", "config": {"name": "conv2d_598", "trainable": true, "dtype": "float32", "filters": 192, "kernel_size": [1, 1], "strides": [1, 1], "padding": "same", "data_format": "channels_last", "dilation_rate": [1, 1], "activation": "linear", "use_bias": false, "kernel_initializer": {"class_name": "VarianceScaling", "config": {"scale": 1.0, "mode": "fan_avg", "distribution": "uniform", "seed": null}}, "bias_initializer": {"class_name": "Zeros", "config": {}}, "kernel_regularizer": null, "bias_regularizer": null, "activity_regularizer": null, "kernel_constraint": null, "bias_constraint": null}, "inbound_nodes": [[["block8_7_ac", 0, 0, {}]]]}, {"name": "conv2d_601", "class_name": "Conv2D", "config": {"name": "conv2d_601", "trainable": true, "dtype": "float32", "filters": 256, "kernel_size": [3, 1], "strides": [1, 1], "padding": "same", "data_format": "channels_last", "dilation_rate": [1, 1], "activation": "linear", "use_bias": false, "kernel_initializer": {"class_name": "VarianceScaling", "config": {"scale": 1.0, "mode": "fan_avg", "distribution": "uniform", "seed": null}}, "bias_initializer": {"class_name": "Zeros", "config": {}}, "kernel_regularizer": null, "bias_regularizer": null, "activity_regularizer": null, "kernel_constraint": null, "bias_constraint": null}, "inbound_nodes": [[["activation_876", 0, 0, {}]]]}, {"name": "batch_normalization_598", "class_name": "BatchNormalization", "config": {"name": "batch_normalization_598", "trainable": true, "dtype": "float32", "axis": 3, "momentum": 0.99, "epsilon": 0.001, "center": true, "scale": false, "beta_initializer": {"class_name": "Zeros", "config": {}}, "gamma_initializer": {"class_name": "Ones", "config": {}}, "moving_mean_initializer": {"class_name": "Zeros", "config": {}}, "moving_variance_initializer": {"class_name": "Ones", "config": {}}, "beta_regularizer": null, "gamma_regularizer": null, "beta_constraint": null, "gamma_constraint": null}, "inbound_nodes": [[["conv2d_598", 0, 0, {}]]]}, {"name": "batch_normalization_601", "class_name": "BatchNormalization", "config": {"name": "batch_normalization_601", "trainable": true, "dtype": "float32", "axis": 3, "momentum": 0.99, "epsilon": 0.001, "center": true, "scale": false, "beta_initializer": {"class_name": "Zeros", "config": {}}, "gamma_initializer": {"class_name": "Ones", "config": {}}, "moving_mean_initializer": {"class_name": "Zeros", "config": {}}, "moving_variance_initializer": {"class_name": "Ones", "config": {}}, "beta_regularizer": null, "gamma_regularizer": null, "beta_constraint": null, "gamma_constraint": null}, "inbound_nodes": [[["conv2d_601", 0, 0, {}]]]}, {"name": "activation_874", "class_name": "Activation", "config": {"name": "activation_874", "trainable": true, "dtype": "float32", "activation": "relu"}, "inbound_nodes": [[["batch_normalization_598", 0, 0, {}]]]}, {"name": "activation_877", "class_name": "Activation", "config": {"name": "activation_877", "trainable": true, "dtype": "float32", "activation": "relu"}, "inbound_nodes": [[["batch_normalization_601", 0, 0, {}]]]}, {"name": "block8_8_mixed", "class_name": "Concatenate", "config": {"name": "block8_8_mixed", "trainable": true, "dtype": "float32", "axis": 3}, "inbound_nodes": [[["activation_874", 0, 0, {}], ["activation_877", 0, 0, {}]]]}, {"name": "block8_8_conv", "class_name": "Conv2D", "config": {"name": "block8_8_conv", "trainable": true, "dtype": "float32", "filters": 2080, "kernel_size": [1, 1], "strides": [1, 1], "padding": "same", "data_format": "channels_last", "dilation_rate": [1, 1], "activation": "linear", "use_bias": true, "kernel_initializer": {"class_name": "VarianceScaling", "config": {"scale": 1.0, "mode": "fan_avg", "distribution": "uniform", "seed": null}}, "bias_initializer": {"class_name": "Zeros", "config": {}}, "kernel_regularizer": null, "bias_regularizer": null, "activity_regularizer": null, "kernel_constraint": null, "bias_constraint": null}, "inbound_nodes": [[["block8_8_mixed", 0, 0, {}]]]}, {"name": "block8_8", "class_name": "Lambda", "config": {"name": "block8_8", "trainable": true, "dtype": "float32", "function": ["4wIAAAAAAAAAAgAAAAMAAABTAAAAcxQAAAB8AGQBGQB8AGQCGQB8ARQAFwBTACkDTukAAAAA6QEA\nAACpACkC2gZpbnB1dHPaBXNjYWxlcgMAAAByAwAAAPpQL3Vzci9sb2NhbC9saWIvcHl0aG9uMy42\nL2Rpc3QtcGFja2FnZXMva2VyYXNfYXBwbGljYXRpb25zL2luY2VwdGlvbl9yZXNuZXRfdjIucHna\nCDxsYW1iZGE+qAAAAPMAAAAA\n", null, null], "function_type": "lambda", "output_shape": [3, 3, 2080], "output_shape_type": "raw", "arguments": {"scale": 0.2}}, "inbound_nodes": [[["block8_7_ac", 0, 0, {}], ["block8_8_conv", 0, 0, {}]]]}, {"name": "block8_8_ac", "class_name": "Activation", "config": {"name": "block8_8_ac", "trainable": true, "dtype": "float32", "activation": "relu"}, "inbound_nodes": [[["block8_8", 0, 0, {}]]]}, {"name": "conv2d_603", "class_name": "Conv2D", "config": {"name": "conv2d_603", "trainable": true, "dtype": "float32", "filters": 192, "kernel_size": [1, 1], "strides": [1, 1], "padding": "same", "data_format": "channels_last", "dilation_rate": [1, 1], "activation": "linear", "use_bias": false, "kernel_initializer": {"class_name": "VarianceScaling", "config": {"scale": 1.0, "mode": "fan_avg", "distribution": "uniform", "seed": null}}, "bias_initializer": {"class_name": "Zeros", "config": {}}, "kernel_regularizer": null, "bias_regularizer": null, "activity_regularizer": null, "kernel_constraint": null, "bias_constraint": null}, "inbound_nodes": [[["block8_8_ac", 0, 0, {}]]]}, {"name": "batch_normalization_603", "class_name": "BatchNormalization", "config": {"name": "batch_normalization_603", "trainable": true, "dtype": "float32", "axis": 3, "momentum": 0.99, "epsilon": 0.001, "center": true, "scale": false, "beta_initializer": {"class_name": "Zeros", "config": {}}, "gamma_initializer": {"class_name": "Ones", "config": {}}, "moving_mean_initializer": {"class_name": "Zeros", "config": {}}, "moving_variance_initializer": {"class_name": "Ones", "config": {}}, "beta_regularizer": null, "gamma_regularizer": null, "beta_constraint": null, "gamma_constraint": null}, "inbound_nodes": [[["conv2d_603", 0, 0, {}]]]}, {"name": "activation_879", "class_name": "Activation", "config": {"name": "activation_879", "trainable": true, "dtype": "float32", "activation": "relu"}, "inbound_nodes": [[["batch_normalization_603", 0, 0, {}]]]}, {"name": "conv2d_604", "class_name": "Conv2D", "config": {"name": "conv2d_604", "trainable": true, "dtype": "float32", "filters": 224, "kernel_size": [1, 3], "strides": [1, 1], "padding": "same", "data_format": "channels_last", "dilation_rate": [1, 1], "activation": "linear", "use_bias": false, "kernel_initializer": {"class_name": "VarianceScaling", "config": {"scale": 1.0, "mode": "fan_avg", "distribution": "uniform", "seed": null}}, "bias_initializer": {"class_name": "Zeros", "config": {}}, "kernel_regularizer": null, "bias_regularizer": null, "activity_regularizer": null, "kernel_constraint": null, "bias_constraint": null}, "inbound_nodes": [[["activation_879", 0, 0, {}]]]}, {"name": "batch_normalization_604", "class_name": "BatchNormalization", "config": {"name": "batch_normalization_604", "trainable": true, "dtype": "float32", "axis": 3, "momentum": 0.99, "epsilon": 0.001, "center": true, "scale": false, "beta_initializer": {"class_name": "Zeros", "config": {}}, "gamma_initializer": {"class_name": "Ones", "config": {}}, "moving_mean_initializer": {"class_name": "Zeros", "config": {}}, "moving_variance_initializer": {"class_name": "Ones", "config": {}}, "beta_regularizer": null, "gamma_regularizer": null, "beta_constraint": null, "gamma_constraint": null}, "inbound_nodes": [[["conv2d_604", 0, 0, {}]]]}, {"name": "activation_880", "class_name": "Activation", "config": {"name": "activation_880", "trainable": true, "dtype": "float32", "activation": "relu"}, "inbound_nodes": [[["batch_normalization_604", 0, 0, {}]]]}, {"name": "conv2d_602", "class_name": "Conv2D", "config": {"name": "conv2d_602", "trainable": true, "dtype": "float32", "filters": 192, "kernel_size": [1, 1], "strides": [1, 1], "padding": "same", "data_format": "channels_last", "dilation_rate": [1, 1], "activation": "linear", "use_bias": false, "kernel_initializer": {"class_name": "VarianceScaling", "config": {"scale": 1.0, "mode": "fan_avg", "distribution": "uniform", "seed": null}}, "bias_initializer": {"class_name": "Zeros", "config": {}}, "kernel_regularizer": null, "bias_regularizer": null, "activity_regularizer": null, "kernel_constraint": null, "bias_constraint": null}, "inbound_nodes": [[["block8_8_ac", 0, 0, {}]]]}, {"name": "conv2d_605", "class_name": "Conv2D", "config": {"name": "conv2d_605", "trainable": true, "dtype": "float32", "filters": 256, "kernel_size": [3, 1], "strides": [1, 1], "padding": "same", "data_format": "channels_last", "dilation_rate": [1, 1], "activation": "linear", "use_bias": false, "kernel_initializer": {"class_name": "VarianceScaling", "config": {"scale": 1.0, "mode": "fan_avg", "distribution": "uniform", "seed": null}}, "bias_initializer": {"class_name": "Zeros", "config": {}}, "kernel_regularizer": null, "bias_regularizer": null, "activity_regularizer": null, "kernel_constraint": null, "bias_constraint": null}, "inbound_nodes": [[["activation_880", 0, 0, {}]]]}, {"name": "batch_normalization_602", "class_name": "BatchNormalization", "config": {"name": "batch_normalization_602", "trainable": true, "dtype": "float32", "axis": 3, "momentum": 0.99, "epsilon": 0.001, "center": true, "scale": false, "beta_initializer": {"class_name": "Zeros", "config": {}}, "gamma_initializer": {"class_name": "Ones", "config": {}}, "moving_mean_initializer": {"class_name": "Zeros", "config": {}}, "moving_variance_initializer": {"class_name": "Ones", "config": {}}, "beta_regularizer": null, "gamma_regularizer": null, "beta_constraint": null, "gamma_constraint": null}, "inbound_nodes": [[["conv2d_602", 0, 0, {}]]]}, {"name": "batch_normalization_605", "class_name": "BatchNormalization", "config": {"name": "batch_normalization_605", "trainable": true, "dtype": "float32", "axis": 3, "momentum": 0.99, "epsilon": 0.001, "center": true, "scale": false, "beta_initializer": {"class_name": "Zeros", "config": {}}, "gamma_initializer": {"class_name": "Ones", "config": {}}, "moving_mean_initializer": {"class_name": "Zeros", "config": {}}, "moving_variance_initializer": {"class_name": "Ones", "config": {}}, "beta_regularizer": null, "gamma_regularizer": null, "beta_constraint": null, "gamma_constraint": null}, "inbound_nodes": [[["conv2d_605", 0, 0, {}]]]}, {"name": "activation_878", "class_name": "Activation", "config": {"name": "activation_878", "trainable": true, "dtype": "float32", "activation": "relu"}, "inbound_nodes": [[["batch_normalization_602", 0, 0, {}]]]}, {"name": "activation_881", "class_name": "Activation", "config": {"name": "activation_881", "trainable": true, "dtype": "float32", "activation": "relu"}, "inbound_nodes": [[["batch_normalization_605", 0, 0, {}]]]}, {"name": "block8_9_mixed", "class_name": "Concatenate", "config": {"name": "block8_9_mixed", "trainable": true, "dtype": "float32", "axis": 3}, "inbound_nodes": [[["activation_878", 0, 0, {}], ["activation_881", 0, 0, {}]]]}, {"name": "block8_9_conv", "class_name": "Conv2D", "config": {"name": "block8_9_conv", "trainable": true, "dtype": "float32", "filters": 2080, "kernel_size": [1, 1], "strides": [1, 1], "padding": "same", "data_format": "channels_last", "dilation_rate": [1, 1], "activation": "linear", "use_bias": true, "kernel_initializer": {"class_name": "VarianceScaling", "config": {"scale": 1.0, "mode": "fan_avg", "distribution": "uniform", "seed": null}}, "bias_initializer": {"class_name": "Zeros", "config": {}}, "kernel_regularizer": null, "bias_regularizer": null, "activity_regularizer": null, "kernel_constraint": null, "bias_constraint": null}, "inbound_nodes": [[["block8_9_mixed", 0, 0, {}]]]}, {"name": "block8_9", "class_name": "Lambda", "config": {"name": "block8_9", "trainable": true, "dtype": "float32", "function": ["4wIAAAAAAAAAAgAAAAMAAABTAAAAcxQAAAB8AGQBGQB8AGQCGQB8ARQAFwBTACkDTukAAAAA6QEA\nAACpACkC2gZpbnB1dHPaBXNjYWxlcgMAAAByAwAAAPpQL3Vzci9sb2NhbC9saWIvcHl0aG9uMy42\nL2Rpc3QtcGFja2FnZXMva2VyYXNfYXBwbGljYXRpb25zL2luY2VwdGlvbl9yZXNuZXRfdjIucHna\nCDxsYW1iZGE+qAAAAPMAAAAA\n", null, null], "function_type": "lambda", "output_shape": [3, 3, 2080], "output_shape_type": "raw", "arguments": {"scale": 0.2}}, "inbound_nodes": [[["block8_8_ac", 0, 0, {}], ["block8_9_conv", 0, 0, {}]]]}, {"name": "block8_9_ac", "class_name": "Activation", "config": {"name": "block8_9_ac", "trainable": true, "dtype": "float32", "activation": "relu"}, "inbound_nodes": [[["block8_9", 0, 0, {}]]]}, {"name": "conv2d_607", "class_name": "Conv2D", "config": {"name": "conv2d_607", "trainable": true, "dtype": "float32", "filters": 192, "kernel_size": [1, 1], "strides": [1, 1], "padding": "same", "data_format": "channels_last", "dilation_rate": [1, 1], "activation": "linear", "use_bias": false, "kernel_initializer": {"class_name": "VarianceScaling", "config": {"scale": 1.0, "mode": "fan_avg", "distribution": "uniform", "seed": null}}, "bias_initializer": {"class_name": "Zeros", "config": {}}, "kernel_regularizer": null, "bias_regularizer": null, "activity_regularizer": null, "kernel_constraint": null, "bias_constraint": null}, "inbound_nodes": [[["block8_9_ac", 0, 0, {}]]]}, {"name": "batch_normalization_607", "class_name": "BatchNormalization", "config": {"name": "batch_normalization_607", "trainable": true, "dtype": "float32", "axis": 3, "momentum": 0.99, "epsilon": 0.001, "center": true, "scale": false, "beta_initializer": {"class_name": "Zeros", "config": {}}, "gamma_initializer": {"class_name": "Ones", "config": {}}, "moving_mean_initializer": {"class_name": "Zeros", "config": {}}, "moving_variance_initializer": {"class_name": "Ones", "config": {}}, "beta_regularizer": null, "gamma_regularizer": null, "beta_constraint": null, "gamma_constraint": null}, "inbound_nodes": [[["conv2d_607", 0, 0, {}]]]}, {"name": "activation_883", "class_name": "Activation", "config": {"name": "activation_883", "trainable": true, "dtype": "float32", "activation": "relu"}, "inbound_nodes": [[["batch_normalization_607", 0, 0, {}]]]}, {"name": "conv2d_608", "class_name": "Conv2D", "config": {"name": "conv2d_608", "trainable": true, "dtype": "float32", "filters": 224, "kernel_size": [1, 3], "strides": [1, 1], "padding": "same", "data_format": "channels_last", "dilation_rate": [1, 1], "activation": "linear", "use_bias": false, "kernel_initializer": {"class_name": "VarianceScaling", "config": {"scale": 1.0, "mode": "fan_avg", "distribution": "uniform", "seed": null}}, "bias_initializer": {"class_name": "Zeros", "config": {}}, "kernel_regularizer": null, "bias_regularizer": null, "activity_regularizer": null, "kernel_constraint": null, "bias_constraint": null}, "inbound_nodes": [[["activation_883", 0, 0, {}]]]}, {"name": "batch_normalization_608", "class_name": "BatchNormalization", "config": {"name": "batch_normalization_608", "trainable": true, "dtype": "float32", "axis": 3, "momentum": 0.99, "epsilon": 0.001, "center": true, "scale": false, "beta_initializer": {"class_name": "Zeros", "config": {}}, "gamma_initializer": {"class_name": "Ones", "config": {}}, "moving_mean_initializer": {"class_name": "Zeros", "config": {}}, "moving_variance_initializer": {"class_name": "Ones", "config": {}}, "beta_regularizer": null, "gamma_regularizer": null, "beta_constraint": null, "gamma_constraint": null}, "inbound_nodes": [[["conv2d_608", 0, 0, {}]]]}, {"name": "activation_884", "class_name": "Activation", "config": {"name": "activation_884", "trainable": true, "dtype": "float32", "activation": "relu"}, "inbound_nodes": [[["batch_normalization_608", 0, 0, {}]]]}, {"name": "conv2d_606", "class_name": "Conv2D", "config": {"name": "conv2d_606", "trainable": true, "dtype": "float32", "filters": 192, "kernel_size": [1, 1], "strides": [1, 1], "padding": "same", "data_format": "channels_last", "dilation_rate": [1, 1], "activation": "linear", "use_bias": false, "kernel_initializer": {"class_name": "VarianceScaling", "config": {"scale": 1.0, "mode": "fan_avg", "distribution": "uniform", "seed": null}}, "bias_initializer": {"class_name": "Zeros", "config": {}}, "kernel_regularizer": null, "bias_regularizer": null, "activity_regularizer": null, "kernel_constraint": null, "bias_constraint": null}, "inbound_nodes": [[["block8_9_ac", 0, 0, {}]]]}, {"name": "conv2d_609", "class_name": "Conv2D", "config": {"name": "conv2d_609", "trainable": true, "dtype": "float32", "filters": 256, "kernel_size": [3, 1], "strides": [1, 1], "padding": "same", "data_format": "channels_last", "dilation_rate": [1, 1], "activation": "linear", "use_bias": false, "kernel_initializer": {"class_name": "VarianceScaling", "config": {"scale": 1.0, "mode": "fan_avg", "distribution": "uniform", "seed": null}}, "bias_initializer": {"class_name": "Zeros", "config": {}}, "kernel_regularizer": null, "bias_regularizer": null, "activity_regularizer": null, "kernel_constraint": null, "bias_constraint": null}, "inbound_nodes": [[["activation_884", 0, 0, {}]]]}, {"name": "batch_normalization_606", "class_name": "BatchNormalization", "config": {"name": "batch_normalization_606", "trainable": true, "dtype": "float32", "axis": 3, "momentum": 0.99, "epsilon": 0.001, "center": true, "scale": false, "beta_initializer": {"class_name": "Zeros", "config": {}}, "gamma_initializer": {"class_name": "Ones", "config": {}}, "moving_mean_initializer": {"class_name": "Zeros", "config": {}}, "moving_variance_initializer": {"class_name": "Ones", "config": {}}, "beta_regularizer": null, "gamma_regularizer": null, "beta_constraint": null, "gamma_constraint": null}, "inbound_nodes": [[["conv2d_606", 0, 0, {}]]]}, {"name": "batch_normalization_609", "class_name": "BatchNormalization", "config": {"name": "batch_normalization_609", "trainable": true, "dtype": "float32", "axis": 3, "momentum": 0.99, "epsilon": 0.001, "center": true, "scale": false, "beta_initializer": {"class_name": "Zeros", "config": {}}, "gamma_initializer": {"class_name": "Ones", "config": {}}, "moving_mean_initializer": {"class_name": "Zeros", "config": {}}, "moving_variance_initializer": {"class_name": "Ones", "config": {}}, "beta_regularizer": null, "gamma_regularizer": null, "beta_constraint": null, "gamma_constraint": null}, "inbound_nodes": [[["conv2d_609", 0, 0, {}]]]}, {"name": "activation_882", "class_name": "Activation", "config": {"name": "activation_882", "trainable": true, "dtype": "float32", "activation": "relu"}, "inbound_nodes": [[["batch_normalization_606", 0, 0, {}]]]}, {"name": "activation_885", "class_name": "Activation", "config": {"name": "activation_885", "trainable": true, "dtype": "float32", "activation": "relu"}, "inbound_nodes": [[["batch_normalization_609", 0, 0, {}]]]}, {"name": "block8_10_mixed", "class_name": "Concatenate", "config": {"name": "block8_10_mixed", "trainable": true, "dtype": "float32", "axis": 3}, "inbound_nodes": [[["activation_882", 0, 0, {}], ["activation_885", 0, 0, {}]]]}, {"name": "block8_10_conv", "class_name": "Conv2D", "config": {"name": "block8_10_conv", "trainable": true, "dtype": "float32", "filters": 2080, "kernel_size": [1, 1], "strides": [1, 1], "padding": "same", "data_format": "channels_last", "dilation_rate": [1, 1], "activation": "linear", "use_bias": true, "kernel_initializer": {"class_name": "VarianceScaling", "config": {"scale": 1.0, "mode": "fan_avg", "distribution": "uniform", "seed": null}}, "bias_initializer": {"class_name": "Zeros", "config": {}}, "kernel_regularizer": null, "bias_regularizer": null, "activity_regularizer": null, "kernel_constraint": null, "bias_constraint": null}, "inbound_nodes": [[["block8_10_mixed", 0, 0, {}]]]}, {"name": "block8_10", "class_name": "Lambda", "config": {"name": "block8_10", "trainable": true, "dtype": "float32", "function": ["4wIAAAAAAAAAAgAAAAMAAABTAAAAcxQAAAB8AGQBGQB8AGQCGQB8ARQAFwBTACkDTukAAAAA6QEA\nAACpACkC2gZpbnB1dHPaBXNjYWxlcgMAAAByAwAAAPpQL3Vzci9sb2NhbC9saWIvcHl0aG9uMy42\nL2Rpc3QtcGFja2FnZXMva2VyYXNfYXBwbGljYXRpb25zL2luY2VwdGlvbl9yZXNuZXRfdjIucHna\nCDxsYW1iZGE+qAAAAPMAAAAA\n", null, null], "function_type": "lambda", "output_shape": [3, 3, 2080], "output_shape_type": "raw", "arguments": {"scale": 1.0}}, "inbound_nodes": [[["block8_9_ac", 0, 0, {}], ["block8_10_conv", 0, 0, {}]]]}, {"name": "conv_7b", "class_name": "Conv2D", "config": {"name": "conv_7b", "trainable": true, "dtype": "float32", "filters": 1536, "kernel_size": [1, 1], "strides": [1, 1], "padding": "same", "data_format": "channels_last", "dilation_rate": [1, 1], "activation": "linear", "use_bias": false, "kernel_initializer": {"class_name": "VarianceScaling", "config": {"scale": 1.0, "mode": "fan_avg", "distribution": "uniform", "seed": null}}, "bias_initializer": {"class_name": "Zeros", "config": {}}, "kernel_regularizer": null, "bias_regularizer": null, "activity_regularizer": null, "kernel_constraint": null, "bias_constraint": null}, "inbound_nodes": [[["block8_10", 0, 0, {}]]]}, {"name": "conv_7b_bn", "class_name": "BatchNormalization", "config": {"name": "conv_7b_bn", "trainable": true, "dtype": "float32", "axis": 3, "momentum": 0.99, "epsilon": 0.001, "center": true, "scale": false, "beta_initializer": {"class_name": "Zeros", "config": {}}, "gamma_initializer": {"class_name": "Ones", "config": {}}, "moving_mean_initializer": {"class_name": "Zeros", "config": {}}, "moving_variance_initializer": {"class_name": "Ones", "config": {}}, "beta_regularizer": null, "gamma_regularizer": null, "beta_constraint": null, "gamma_constraint": null}, "inbound_nodes": [[["conv_7b", 0, 0, {}]]]}, {"name": "conv_7b_ac", "class_name": "Activation", "config": {"name": "conv_7b_ac", "trainable": true, "dtype": "float32", "activation": "relu"}, "inbound_nodes": [[["conv_7b_bn", 0, 0, {}]]]}, {"name": "global_average_pooling2d_8", "class_name": "GlobalAveragePooling2D", "config": {"name": "global_average_pooling2d_8", "trainable": true, "dtype": "float32", "data_format": "channels_last"}, "inbound_nodes": [[["conv_7b_ac", 0, 0, {}]]]}, {"name": "dense_7", "class_name": "Dense", "config": {"name": "dense_7", "trainable": true, "dtype": "float32", "units": 3, "activation": "softmax", "use_bias": true, "kernel_initializer": {"class_name": "VarianceScaling", "config": {"scale": 1.0, "mode": "fan_avg", "distribution": "uniform", "seed": null}}, "bias_initializer": {"class_name": "Zeros", "config": {}}, "kernel_regularizer": null, "bias_regularizer": null, "activity_regularizer": null, "kernel_constraint": null, "bias_constraint": null}, "inbound_nodes": [[["global_average_pooling2d_8", 0, 0, {}]]]}], "input_layers": [["input_9", 0, 0]], "output_layers": [["dense_7", 0, 0]]}, "keras_version": "2.2.5", "backend": "tensorflow"}